STEdgeAI Core v9.0.0-19802
Created date          : 2024-10-17 13:41:15
Parameters            : generate --target stm32f7 --name network -m C:/Users/jirap/Downloads/best_full_integer_quant (1).tflite --compression none --verbosity 1 --allocate-inputs --allocate-outputs --workspace C:/Users/jirap/AppData/Local/Temp/mxAI_workspace962090736401007803482309612668121 --output C:/Users/jirap/.stm32cubemx/network_output

Exec/report summary (generate)
---------------------------------------------------------------------------------------------------------------------------------
model file         :   C:\Users\jirap\Downloads\best_full_integer_quant (1).tflite                                               
type               :   tflite                                                                                                    
c_name             :   network                                                                                                   
compression        :   none                                                                                                      
options            :   allocate-inputs, allocate-outputs                                                                         
optimization       :   balanced                                                                                                  
target/series      :   stm32f7                                                                                                   
workspace dir      :   C:\Users\jirap\AppData\Local\Temp\mxAI_workspace962090736401007803482309612668121                         
output dir         :   C:\Users\jirap\.stm32cubemx\network_output                                                                
model_fmt          :   ss/sa per tensor                                                                                          
model_name         :   best_full_integer_quant_1                                                                                 
model_hash         :   0x3aedac79218d235d60ce642efcf1928b                                                                        
params #           :   301,176 items (301.36 KiB)                                                                                
---------------------------------------------------------------------------------------------------------------------------------
input 1/1          :   'serving_default_images0', int8(1x128x128x3), 48.00 KBytes, QLinear(0.003921569,-128,int8), activations   
output 1/1         :   'concat_526', int8(1x6x84), 504 Bytes, QLinear(0.051727831,-124,int8), activations                        
macc               :   9,176,731                                                                                                 
weights (ro)       :   308,592 B (301.36 KiB) (1 segment) / -896,112(-74.4%) vs float model                                      
activations (rw)   :   65,536 B (64.00 KiB) (1 segment) *                                                                        
ram (total)        :   65,536 B (64.00 KiB) = 65,536 + 0 + 0                                                                     
---------------------------------------------------------------------------------------------------------------------------------
(*) 'input'/'output' buffers can be used from the activations buffer

Model name - best_full_integer_quant_1
------ -------------------------------------------------- ----------------------- --------------- ----------- ------------------------- --- ----------------- ------------------- -------------------- 
m_id   layer (type,original)                              oshape                  param/size             macc              connected to   | c_size            c_macc              c_type               
------ -------------------------------------------------- ----------------------- --------------- ----------- ------------------------- --- ----------------- ------------------- -------------------- 
0      serving_default_images0 (Input, )                  [b:1,h:128,w:128,c:3]                                                           | +248(+100.0%)     +884,744(+100.0%)   Conv2D_[0]           
       pad_0 (Pad, PAD)                                   [b:1,h:130,w:130,c:3]                                 serving_default_images0   |                                       
------ -------------------------------------------------- ----------------------- --------------- ----------- ------------------------- --- ----------------- ------------------- -------------------- 
1      conv2d_1 (Conv2D, CONV_2D)                         [b:1,h:64,w:64,c:8]     224/248             884,744                     pad_0   | -248(-100.0%)     -884,744(-100.0%)   
------ -------------------------------------------------- ----------------------- --------------- ----------- ------------------------- --- ----------------- ------------------- -------------------- 
2      nl_2 (Nonlinearity, LOGISTIC)                      [b:1,h:64,w:64,c:8]                         327,680                  conv2d_1   |                   -294,912(-90.0%)    Nonlinearity_[1]     
------ -------------------------------------------------- ----------------------- --------------- ----------- ------------------------- --- ----------------- ------------------- -------------------- 
3      eltwise_3 (Eltwise, MUL)                           [b:1,h:64,w:64,c:8]                          32,768                  conv2d_1   |                                       Eltwise/mul_[2]      
                                                                                                                                   nl_2   | 
------ -------------------------------------------------- ----------------------- --------------- ----------- ------------------------- --- ----------------- ------------------- -------------------- 
4      pad_4 (Pad, PAD)                                   [b:1,h:66,w:66,c:8]                                                 eltwise_3   | +608(+100.0%)     +589,832(+100.0%)   Conv2D_[3]           
------ -------------------------------------------------- ----------------------- --------------- ----------- ------------------------- --- ----------------- ------------------- -------------------- 
5      conv2d_5 (Conv2D, CONV_2D)                         [b:1,h:32,w:32,c:8]     584/608             589,832                     pad_4   | -608(-100.0%)     -589,832(-100.0%)   
------ -------------------------------------------------- ----------------------- --------------- ----------- ------------------------- --- ----------------- ------------------- -------------------- 
6      nl_6 (Nonlinearity, LOGISTIC)                      [b:1,h:32,w:32,c:8]                          81,920                  conv2d_5   |                   -73,728(-90.0%)     Nonlinearity_[4]     
------ -------------------------------------------------- ----------------------- --------------- ----------- ------------------------- --- ----------------- ------------------- -------------------- 
7      eltwise_7 (Eltwise, MUL)                           [b:1,h:32,w:32,c:8]                           8,192                  conv2d_5   |                                       Eltwise/mul_[5]      
                                                                                                                                   nl_6   | 
------ -------------------------------------------------- ----------------------- --------------- ----------- ------------------------- --- ----------------- ------------------- -------------------- 
8      pool_8 (Pool, MAX_POOL_2D)                         [b:1,h:16,w:16,c:8]                           8,192                 eltwise_7   |                                       Pool_[6]             
------ -------------------------------------------------- ----------------------- --------------- ----------- ------------------------- --- ----------------- ------------------- -------------------- 
9      conv2d_9 (Conv2D, CONV_2D)                         [b:1,h:16,w:16,c:16]    144/192              32,784                    pool_8   |                                       Conv2D_[7]           
------ -------------------------------------------------- ----------------------- --------------- ----------- ------------------------- --- ----------------- ------------------- -------------------- 
10     nl_10 (Nonlinearity, LOGISTIC)                     [b:1,h:16,w:16,c:16]                         40,960                  conv2d_9   |                   -36,864(-90.0%)     Nonlinearity_[8]     
------ -------------------------------------------------- ----------------------- --------------- ----------- ------------------------- --- ----------------- ------------------- -------------------- 
11     eltwise_11 (Eltwise, MUL)                          [b:1,h:16,w:16,c:16]                          4,096                  conv2d_9   |                                       Eltwise/mul_[9]      
                                                                                                                                  nl_10   | 
------ -------------------------------------------------- ----------------------- --------------- ----------- ------------------------- --- ----------------- ------------------- -------------------- 
12     slice_12 (Slice, STRIDED_SLICE)                    [b:1,h:16,w:16,c:8]                                                eltwise_11   |                                       Slice_[11]           
------ -------------------------------------------------- ----------------------- --------------- ----------- ------------------------- --- ----------------- ------------------- -------------------- 
13     conv2d_13 (Conv2D, CONV_2D)                        [b:1,h:16,w:16,c:8]     584/608             147,464                  slice_12   |                                       Conv2D_[12]          
------ -------------------------------------------------- ----------------------- --------------- ----------- ------------------------- --- ----------------- ------------------- -------------------- 
14     nl_14 (Nonlinearity, LOGISTIC)                     [b:1,h:16,w:16,c:8]                          20,480                 conv2d_13   |                   -18,432(-90.0%)     Nonlinearity_[13]    
------ -------------------------------------------------- ----------------------- --------------- ----------- ------------------------- --- ----------------- ------------------- -------------------- 
15     eltwise_15 (Eltwise, MUL)                          [b:1,h:16,w:16,c:8]                           2,048                 conv2d_13   |                                       Eltwise/mul_[14]     
                                                                                                                                  nl_14   | 
------ -------------------------------------------------- ----------------------- --------------- ----------- ------------------------- --- ----------------- ------------------- -------------------- 
16     conv2d_16 (Conv2D, CONV_2D)                        [b:1,h:16,w:16,c:8]     584/608             147,464                eltwise_15   |                                       Conv2D_[15]          
------ -------------------------------------------------- ----------------------- --------------- ----------- ------------------------- --- ----------------- ------------------- -------------------- 
17     nl_17 (Nonlinearity, LOGISTIC)                     [b:1,h:16,w:16,c:8]                          20,480                 conv2d_16   |                   -18,432(-90.0%)     Nonlinearity_[16]    
------ -------------------------------------------------- ----------------------- --------------- ----------- ------------------------- --- ----------------- ------------------- -------------------- 
18     eltwise_18 (Eltwise, MUL)                          [b:1,h:16,w:16,c:8]                           2,048                 conv2d_16   |                                       Eltwise/mul_[17]     
                                                                                                                                  nl_17   | 
------ -------------------------------------------------- ----------------------- --------------- ----------- ------------------------- --- ----------------- ------------------- -------------------- 
19     slice_19 (Slice, STRIDED_SLICE)                    [b:1,h:16,w:16,c:8]                                                eltwise_11   |                                       Slice_[10]           
------ -------------------------------------------------- ----------------------- --------------- ----------- ------------------------- --- ----------------- ------------------- -------------------- 
20     concat_20 (Concat, CONCATENATION)                  [b:1,h:16,w:16,c:32]                                                 slice_19   |                                       Concat_[18]          
                                                                                                                               slice_12   | 
                                                                                                                             eltwise_15   | 
                                                                                                                             eltwise_18   | 
------ -------------------------------------------------- ----------------------- --------------- ----------- ------------------------- --- ----------------- ------------------- -------------------- 
21     conv2d_21 (Conv2D, CONV_2D)                        [b:1,h:16,w:16,c:8]     264/288              65,544                 concat_20   |                                       Conv2D_[19]          
------ -------------------------------------------------- ----------------------- --------------- ----------- ------------------------- --- ----------------- ------------------- -------------------- 
22     nl_22 (Nonlinearity, LOGISTIC)                     [b:1,h:16,w:16,c:8]                          20,480                 conv2d_21   |                   -18,432(-90.0%)     Nonlinearity_[20]    
------ -------------------------------------------------- ----------------------- --------------- ----------- ------------------------- --- ----------------- ------------------- -------------------- 
23     eltwise_23 (Eltwise, MUL)                          [b:1,h:16,w:16,c:8]                           2,048                 conv2d_21   |                                       Eltwise/mul_[21]     
                                                                                                                                  nl_22   | 
------ -------------------------------------------------- ----------------------- --------------- ----------- ------------------------- --- ----------------- ------------------- -------------------- 
24     pool_24 (Pool, AVERAGE_POOL_2D)                    [b:1,h:15,w:15,c:8]                           7,200                eltwise_23   |                                       Pool_[22]            
------ -------------------------------------------------- ----------------------- --------------- ----------- ------------------------- --- ----------------- ------------------- -------------------- 
25     pad_25 (Pad, PAD)                                  [b:1,h:17,w:17,c:8]                                                   pool_24   | +608(+100.0%)     +36,872(+100.0%)    Conv2D_[23]          
------ -------------------------------------------------- ----------------------- --------------- ----------- ------------------------- --- ----------------- ------------------- -------------------- 
26     conv2d_26 (Conv2D, CONV_2D)                        [b:1,h:8,w:8,c:8]       584/608              36,872                    pad_25   | -608(-100.0%)     -36,872(-100.0%)    
------ -------------------------------------------------- ----------------------- --------------- ----------- ------------------------- --- ----------------- ------------------- -------------------- 
27     nl_27 (Nonlinearity, LOGISTIC)                     [b:1,h:8,w:8,c:8]                             5,120                 conv2d_26   |                   -4,608(-90.0%)      Nonlinearity_[24]    
------ -------------------------------------------------- ----------------------- --------------- ----------- ------------------------- --- ----------------- ------------------- -------------------- 
28     eltwise_28 (Eltwise, MUL)                          [b:1,h:8,w:8,c:8]                               512                 conv2d_26   |                                       Eltwise/mul_[25]     
                                                                                                                                  nl_27   | 
------ -------------------------------------------------- ----------------------- --------------- ----------- ------------------------- --- ----------------- ------------------- -------------------- 
29     conv2d_29 (Conv2D, CONV_2D)                        [b:1,h:8,w:8,c:32]      288/384              16,416                eltwise_28   |                                       Conv2D_[26]          
------ -------------------------------------------------- ----------------------- --------------- ----------- ------------------------- --- ----------------- ------------------- -------------------- 
30     nl_30 (Nonlinearity, LOGISTIC)                     [b:1,h:8,w:8,c:32]                           20,480                 conv2d_29   |                   -18,432(-90.0%)     Nonlinearity_[27]    
------ -------------------------------------------------- ----------------------- --------------- ----------- ------------------------- --- ----------------- ------------------- -------------------- 
31     eltwise_31 (Eltwise, MUL)                          [b:1,h:8,w:8,c:32]                            2,048                 conv2d_29   |                                       Eltwise/mul_[28]     
                                                                                                                                  nl_30   | 
------ -------------------------------------------------- ----------------------- --------------- ----------- ------------------------- --- ----------------- ------------------- -------------------- 
32     slice_32 (Slice, STRIDED_SLICE)                    [b:1,h:8,w:8,c:16]                                                 eltwise_31   |                                       Slice_[98]           
------ -------------------------------------------------- ----------------------- --------------- ----------- ------------------------- --- ----------------- ------------------- -------------------- 
33     slice_33 (Slice, STRIDED_SLICE)                    [b:1,h:8,w:8,c:16]                                                 eltwise_31   |                                       Slice_[29]           
------ -------------------------------------------------- ----------------------- --------------- ----------- ------------------------- --- ----------------- ------------------- -------------------- 
34     conv2d_34 (Conv2D, CONV_2D)                        [b:1,h:8,w:8,c:8]       136/160               8,200                  slice_33   |                                       Conv2D_[33]          
------ -------------------------------------------------- ----------------------- --------------- ----------- ------------------------- --- ----------------- ------------------- -------------------- 
35     nl_35 (Nonlinearity, LOGISTIC)                     [b:1,h:8,w:8,c:8]                             5,120                 conv2d_34   |                   -4,608(-90.0%)      Nonlinearity_[34]    
------ -------------------------------------------------- ----------------------- --------------- ----------- ------------------------- --- ----------------- ------------------- -------------------- 
36     eltwise_36 (Eltwise, MUL)                          [b:1,h:8,w:8,c:8]                               512                 conv2d_34   |                                       Eltwise/mul_[35]     
                                                                                                                                  nl_35   | 
------ -------------------------------------------------- ----------------------- --------------- ----------- ------------------------- --- ----------------- ------------------- -------------------- 
37     conv2d_37 (Conv2D, CONV_2D)                        [b:1,h:8,w:8,c:8]       584/608              36,872                eltwise_36   |                                       Conv2D_[36]          
------ -------------------------------------------------- ----------------------- --------------- ----------- ------------------------- --- ----------------- ------------------- -------------------- 
38     nl_38 (Nonlinearity, LOGISTIC)                     [b:1,h:8,w:8,c:8]                             5,120                 conv2d_37   |                   -4,608(-90.0%)      Nonlinearity_[37]    
------ -------------------------------------------------- ----------------------- --------------- ----------- ------------------------- --- ----------------- ------------------- -------------------- 
39     eltwise_39 (Eltwise, MUL)                          [b:1,h:8,w:8,c:8]                               512                 conv2d_37   |                                       Eltwise/mul_[38]     
                                                                                                                                  nl_38   | 
------ -------------------------------------------------- ----------------------- --------------- ----------- ------------------------- --- ----------------- ------------------- -------------------- 
40     conv2d_40 (Conv2D, CONV_2D)                        [b:1,h:8,w:8,c:8]       584/608              36,872                eltwise_39   |                                       Conv2D_[39]          
------ -------------------------------------------------- ----------------------- --------------- ----------- ------------------------- --- ----------------- ------------------- -------------------- 
41     nl_41 (Nonlinearity, LOGISTIC)                     [b:1,h:8,w:8,c:8]                             5,120                 conv2d_40   |                   -4,608(-90.0%)      Nonlinearity_[40]    
------ -------------------------------------------------- ----------------------- --------------- ----------- ------------------------- --- ----------------- ------------------- -------------------- 
42     eltwise_42 (Eltwise, MUL)                          [b:1,h:8,w:8,c:8]                               512                 conv2d_40   |                                       Eltwise/mul_[41]     
                                                                                                                                  nl_41   | 
------ -------------------------------------------------- ----------------------- --------------- ----------- ------------------------- --- ----------------- ------------------- -------------------- 
43     eltwise_43 (Eltwise, ADD)                          [b:1,h:8,w:8,c:8]                               512                eltwise_36   |                                       Eltwise/add_[42]     
                                                                                                                             eltwise_42   | 
------ -------------------------------------------------- ----------------------- --------------- ----------- ------------------------- --- ----------------- ------------------- -------------------- 
44     conv2d_44 (Conv2D, CONV_2D)                        [b:1,h:8,w:8,c:8]       584/608              36,872                eltwise_43   |                                       Conv2D_[43]          
------ -------------------------------------------------- ----------------------- --------------- ----------- ------------------------- --- ----------------- ------------------- -------------------- 
45     nl_45 (Nonlinearity, LOGISTIC)                     [b:1,h:8,w:8,c:8]                             5,120                 conv2d_44   |                   -4,608(-90.0%)      Nonlinearity_[44]    
------ -------------------------------------------------- ----------------------- --------------- ----------- ------------------------- --- ----------------- ------------------- -------------------- 
46     eltwise_46 (Eltwise, MUL)                          [b:1,h:8,w:8,c:8]                               512                 conv2d_44   |                                       Eltwise/mul_[45]     
                                                                                                                                  nl_45   | 
------ -------------------------------------------------- ----------------------- --------------- ----------- ------------------------- --- ----------------- ------------------- -------------------- 
47     conv2d_47 (Conv2D, CONV_2D)                        [b:1,h:8,w:8,c:8]       584/608              36,872                eltwise_46   |                                       Conv2D_[46]          
------ -------------------------------------------------- ----------------------- --------------- ----------- ------------------------- --- ----------------- ------------------- -------------------- 
48     nl_48 (Nonlinearity, LOGISTIC)                     [b:1,h:8,w:8,c:8]                             5,120                 conv2d_47   |                   -4,608(-90.0%)      Nonlinearity_[47]    
------ -------------------------------------------------- ----------------------- --------------- ----------- ------------------------- --- ----------------- ------------------- -------------------- 
49     eltwise_49 (Eltwise, MUL)                          [b:1,h:8,w:8,c:8]                               512                 conv2d_47   |                                       Eltwise/mul_[48]     
                                                                                                                                  nl_48   | 
------ -------------------------------------------------- ----------------------- --------------- ----------- ------------------------- --- ----------------- ------------------- -------------------- 
50     eltwise_50 (Eltwise, ADD)                          [b:1,h:8,w:8,c:8]                               512                eltwise_43   |                                       Eltwise/add_[49]     
                                                                                                                             eltwise_49   | 
------ -------------------------------------------------- ----------------------- --------------- ----------- ------------------------- --- ----------------- ------------------- -------------------- 
51     conv2d_51 (Conv2D, CONV_2D)                        [b:1,h:8,w:8,c:8]       584/608              36,872                eltwise_50   |                                       Conv2D_[50]          
------ -------------------------------------------------- ----------------------- --------------- ----------- ------------------------- --- ----------------- ------------------- -------------------- 
52     nl_52 (Nonlinearity, LOGISTIC)                     [b:1,h:8,w:8,c:8]                             5,120                 conv2d_51   |                   -4,608(-90.0%)      Nonlinearity_[51]    
------ -------------------------------------------------- ----------------------- --------------- ----------- ------------------------- --- ----------------- ------------------- -------------------- 
53     eltwise_53 (Eltwise, MUL)                          [b:1,h:8,w:8,c:8]                               512                 conv2d_51   |                                       Eltwise/mul_[52]     
                                                                                                                                  nl_52   | 
------ -------------------------------------------------- ----------------------- --------------- ----------- ------------------------- --- ----------------- ------------------- -------------------- 
54     conv2d_54 (Conv2D, CONV_2D)                        [b:1,h:8,w:8,c:8]       584/608              36,872                eltwise_53   |                                       Conv2D_[53]          
------ -------------------------------------------------- ----------------------- --------------- ----------- ------------------------- --- ----------------- ------------------- -------------------- 
55     nl_55 (Nonlinearity, LOGISTIC)                     [b:1,h:8,w:8,c:8]                             5,120                 conv2d_54   |                   -4,608(-90.0%)      Nonlinearity_[54]    
------ -------------------------------------------------- ----------------------- --------------- ----------- ------------------------- --- ----------------- ------------------- -------------------- 
56     eltwise_56 (Eltwise, MUL)                          [b:1,h:8,w:8,c:8]                               512                 conv2d_54   |                                       Eltwise/mul_[55]     
                                                                                                                                  nl_55   | 
------ -------------------------------------------------- ----------------------- --------------- ----------- ------------------------- --- ----------------- ------------------- -------------------- 
57     eltwise_57 (Eltwise, ADD)                          [b:1,h:8,w:8,c:8]                               512                eltwise_50   |                                       Eltwise/add_[56]     
                                                                                                                             eltwise_56   | 
------ -------------------------------------------------- ----------------------- --------------- ----------- ------------------------- --- ----------------- ------------------- -------------------- 
58     conv2d_58 (Conv2D, CONV_2D)                        [b:1,h:8,w:8,c:8]       136/160               8,200                  slice_33   |                                       Conv2D_[30]          
------ -------------------------------------------------- ----------------------- --------------- ----------- ------------------------- --- ----------------- ------------------- -------------------- 
59     nl_59 (Nonlinearity, LOGISTIC)                     [b:1,h:8,w:8,c:8]                             5,120                 conv2d_58   |                   -4,608(-90.0%)      Nonlinearity_[31]    
------ -------------------------------------------------- ----------------------- --------------- ----------- ------------------------- --- ----------------- ------------------- -------------------- 
60     eltwise_60 (Eltwise, MUL)                          [b:1,h:8,w:8,c:8]                               512                 conv2d_58   |                                       Eltwise/mul_[32]     
                                                                                                                                  nl_59   | 
------ -------------------------------------------------- ----------------------- --------------- ----------- ------------------------- --- ----------------- ------------------- -------------------- 
61     concat_61 (Concat, CONCATENATION)                  [b:1,h:8,w:8,c:16]                                                 eltwise_57   |                                       Concat_[57]          
                                                                                                                             eltwise_60   | 
------ -------------------------------------------------- ----------------------- --------------- ----------- ------------------------- --- ----------------- ------------------- -------------------- 
62     conv2d_62 (Conv2D, CONV_2D)                        [b:1,h:8,w:8,c:16]      272/320              16,400                 concat_61   |                                       Conv2D_[58]          
------ -------------------------------------------------- ----------------------- --------------- ----------- ------------------------- --- ----------------- ------------------- -------------------- 
63     nl_63 (Nonlinearity, LOGISTIC)                     [b:1,h:8,w:8,c:16]                           10,240                 conv2d_62   |                   -9,216(-90.0%)      Nonlinearity_[59]    
------ -------------------------------------------------- ----------------------- --------------- ----------- ------------------------- --- ----------------- ------------------- -------------------- 
64     eltwise_64 (Eltwise, MUL)                          [b:1,h:8,w:8,c:16]                            1,024                 conv2d_62   |                                       Eltwise/mul_[60]     
                                                                                                                                  nl_63   | 
------ -------------------------------------------------- ----------------------- --------------- ----------- ------------------------- --- ----------------- ------------------- -------------------- 
65     conv2d_65 (Conv2D, CONV_2D)                        [b:1,h:8,w:8,c:16]      2,320/2,368         147,472                eltwise_64   |                                       Conv2D_[61]          
------ -------------------------------------------------- ----------------------- --------------- ----------- ------------------------- --- ----------------- ------------------- -------------------- 
66     nl_66 (Nonlinearity, LOGISTIC)                     [b:1,h:8,w:8,c:16]                           10,240                 conv2d_65   |                   -9,216(-90.0%)      Nonlinearity_[62]    
------ -------------------------------------------------- ----------------------- --------------- ----------- ------------------------- --- ----------------- ------------------- -------------------- 
67     eltwise_67 (Eltwise, MUL)                          [b:1,h:8,w:8,c:16]                            1,024                 conv2d_65   |                                       Eltwise/mul_[63]     
                                                                                                                                  nl_66   | 
------ -------------------------------------------------- ----------------------- --------------- ----------- ------------------------- --- ----------------- ------------------- -------------------- 
68     conv2d_68 (Conv2D, CONV_2D)                        [b:1,h:8,w:8,c:8]       136/160               8,200                eltwise_67   |                                       Conv2D_[67]          
------ -------------------------------------------------- ----------------------- --------------- ----------- ------------------------- --- ----------------- ------------------- -------------------- 
69     nl_69 (Nonlinearity, LOGISTIC)                     [b:1,h:8,w:8,c:8]                             5,120                 conv2d_68   |                   -4,608(-90.0%)      Nonlinearity_[68]    
------ -------------------------------------------------- ----------------------- --------------- ----------- ------------------------- --- ----------------- ------------------- -------------------- 
70     eltwise_70 (Eltwise, MUL)                          [b:1,h:8,w:8,c:8]                               512                 conv2d_68   |                                       Eltwise/mul_[69]     
                                                                                                                                  nl_69   | 
------ -------------------------------------------------- ----------------------- --------------- ----------- ------------------------- --- ----------------- ------------------- -------------------- 
71     conv2d_71 (Conv2D, CONV_2D)                        [b:1,h:8,w:8,c:8]       584/608              36,872                eltwise_70   |                                       Conv2D_[70]          
------ -------------------------------------------------- ----------------------- --------------- ----------- ------------------------- --- ----------------- ------------------- -------------------- 
72     nl_72 (Nonlinearity, LOGISTIC)                     [b:1,h:8,w:8,c:8]                             5,120                 conv2d_71   |                   -4,608(-90.0%)      Nonlinearity_[71]    
------ -------------------------------------------------- ----------------------- --------------- ----------- ------------------------- --- ----------------- ------------------- -------------------- 
73     eltwise_73 (Eltwise, MUL)                          [b:1,h:8,w:8,c:8]                               512                 conv2d_71   |                                       Eltwise/mul_[72]     
                                                                                                                                  nl_72   | 
------ -------------------------------------------------- ----------------------- --------------- ----------- ------------------------- --- ----------------- ------------------- -------------------- 
74     conv2d_74 (Conv2D, CONV_2D)                        [b:1,h:8,w:8,c:8]       584/608              36,872                eltwise_73   |                                       Conv2D_[73]          
------ -------------------------------------------------- ----------------------- --------------- ----------- ------------------------- --- ----------------- ------------------- -------------------- 
75     nl_75 (Nonlinearity, LOGISTIC)                     [b:1,h:8,w:8,c:8]                             5,120                 conv2d_74   |                   -4,608(-90.0%)      Nonlinearity_[74]    
------ -------------------------------------------------- ----------------------- --------------- ----------- ------------------------- --- ----------------- ------------------- -------------------- 
76     eltwise_76 (Eltwise, MUL)                          [b:1,h:8,w:8,c:8]                               512                 conv2d_74   |                                       Eltwise/mul_[75]     
                                                                                                                                  nl_75   | 
------ -------------------------------------------------- ----------------------- --------------- ----------- ------------------------- --- ----------------- ------------------- -------------------- 
77     eltwise_77 (Eltwise, ADD)                          [b:1,h:8,w:8,c:8]                               512                eltwise_70   |                                       Eltwise/add_[76]     
                                                                                                                             eltwise_76   | 
------ -------------------------------------------------- ----------------------- --------------- ----------- ------------------------- --- ----------------- ------------------- -------------------- 
78     conv2d_78 (Conv2D, CONV_2D)                        [b:1,h:8,w:8,c:8]       584/608              36,872                eltwise_77   |                                       Conv2D_[77]          
------ -------------------------------------------------- ----------------------- --------------- ----------- ------------------------- --- ----------------- ------------------- -------------------- 
79     nl_79 (Nonlinearity, LOGISTIC)                     [b:1,h:8,w:8,c:8]                             5,120                 conv2d_78   |                   -4,608(-90.0%)      Nonlinearity_[78]    
------ -------------------------------------------------- ----------------------- --------------- ----------- ------------------------- --- ----------------- ------------------- -------------------- 
80     eltwise_80 (Eltwise, MUL)                          [b:1,h:8,w:8,c:8]                               512                 conv2d_78   |                                       Eltwise/mul_[79]     
                                                                                                                                  nl_79   | 
------ -------------------------------------------------- ----------------------- --------------- ----------- ------------------------- --- ----------------- ------------------- -------------------- 
81     conv2d_81 (Conv2D, CONV_2D)                        [b:1,h:8,w:8,c:8]       584/608              36,872                eltwise_80   |                                       Conv2D_[80]          
------ -------------------------------------------------- ----------------------- --------------- ----------- ------------------------- --- ----------------- ------------------- -------------------- 
82     nl_82 (Nonlinearity, LOGISTIC)                     [b:1,h:8,w:8,c:8]                             5,120                 conv2d_81   |                   -4,608(-90.0%)      Nonlinearity_[81]    
------ -------------------------------------------------- ----------------------- --------------- ----------- ------------------------- --- ----------------- ------------------- -------------------- 
83     eltwise_83 (Eltwise, MUL)                          [b:1,h:8,w:8,c:8]                               512                 conv2d_81   |                                       Eltwise/mul_[82]     
                                                                                                                                  nl_82   | 
------ -------------------------------------------------- ----------------------- --------------- ----------- ------------------------- --- ----------------- ------------------- -------------------- 
84     eltwise_84 (Eltwise, ADD)                          [b:1,h:8,w:8,c:8]                               512                eltwise_77   |                                       Eltwise/add_[83]     
                                                                                                                             eltwise_83   | 
------ -------------------------------------------------- ----------------------- --------------- ----------- ------------------------- --- ----------------- ------------------- -------------------- 
85     conv2d_85 (Conv2D, CONV_2D)                        [b:1,h:8,w:8,c:8]       584/608              36,872                eltwise_84   |                                       Conv2D_[84]          
------ -------------------------------------------------- ----------------------- --------------- ----------- ------------------------- --- ----------------- ------------------- -------------------- 
86     nl_86 (Nonlinearity, LOGISTIC)                     [b:1,h:8,w:8,c:8]                             5,120                 conv2d_85   |                   -4,608(-90.0%)      Nonlinearity_[85]    
------ -------------------------------------------------- ----------------------- --------------- ----------- ------------------------- --- ----------------- ------------------- -------------------- 
87     eltwise_87 (Eltwise, MUL)                          [b:1,h:8,w:8,c:8]                               512                 conv2d_85   |                                       Eltwise/mul_[86]     
                                                                                                                                  nl_86   | 
------ -------------------------------------------------- ----------------------- --------------- ----------- ------------------------- --- ----------------- ------------------- -------------------- 
88     conv2d_88 (Conv2D, CONV_2D)                        [b:1,h:8,w:8,c:8]       584/608              36,872                eltwise_87   |                                       Conv2D_[87]          
------ -------------------------------------------------- ----------------------- --------------- ----------- ------------------------- --- ----------------- ------------------- -------------------- 
89     nl_89 (Nonlinearity, LOGISTIC)                     [b:1,h:8,w:8,c:8]                             5,120                 conv2d_88   |                   -4,608(-90.0%)      Nonlinearity_[88]    
------ -------------------------------------------------- ----------------------- --------------- ----------- ------------------------- --- ----------------- ------------------- -------------------- 
90     eltwise_90 (Eltwise, MUL)                          [b:1,h:8,w:8,c:8]                               512                 conv2d_88   |                                       Eltwise/mul_[89]     
                                                                                                                                  nl_89   | 
------ -------------------------------------------------- ----------------------- --------------- ----------- ------------------------- --- ----------------- ------------------- -------------------- 
91     eltwise_91 (Eltwise, ADD)                          [b:1,h:8,w:8,c:8]                               512                eltwise_84   |                                       Eltwise/add_[90]     
                                                                                                                             eltwise_90   | 
------ -------------------------------------------------- ----------------------- --------------- ----------- ------------------------- --- ----------------- ------------------- -------------------- 
92     conv2d_92 (Conv2D, CONV_2D)                        [b:1,h:8,w:8,c:8]       136/160               8,200                eltwise_67   |                                       Conv2D_[64]          
------ -------------------------------------------------- ----------------------- --------------- ----------- ------------------------- --- ----------------- ------------------- -------------------- 
93     nl_93 (Nonlinearity, LOGISTIC)                     [b:1,h:8,w:8,c:8]                             5,120                 conv2d_92   |                   -4,608(-90.0%)      Nonlinearity_[65]    
------ -------------------------------------------------- ----------------------- --------------- ----------- ------------------------- --- ----------------- ------------------- -------------------- 
94     eltwise_94 (Eltwise, MUL)                          [b:1,h:8,w:8,c:8]                               512                 conv2d_92   |                                       Eltwise/mul_[66]     
                                                                                                                                  nl_93   | 
------ -------------------------------------------------- ----------------------- --------------- ----------- ------------------------- --- ----------------- ------------------- -------------------- 
95     concat_95 (Concat, CONCATENATION)                  [b:1,h:8,w:8,c:16]                                                 eltwise_91   |                                       Concat_[91]          
                                                                                                                             eltwise_94   | 
------ -------------------------------------------------- ----------------------- --------------- ----------- ------------------------- --- ----------------- ------------------- -------------------- 
96     conv2d_96 (Conv2D, CONV_2D)                        [b:1,h:8,w:8,c:16]      272/320              16,400                 concat_95   |                                       Conv2D_[92]          
------ -------------------------------------------------- ----------------------- --------------- ----------- ------------------------- --- ----------------- ------------------- -------------------- 
97     nl_97 (Nonlinearity, LOGISTIC)                     [b:1,h:8,w:8,c:16]                           10,240                 conv2d_96   |                   -9,216(-90.0%)      Nonlinearity_[93]    
------ -------------------------------------------------- ----------------------- --------------- ----------- ------------------------- --- ----------------- ------------------- -------------------- 
98     eltwise_98 (Eltwise, MUL)                          [b:1,h:8,w:8,c:16]                            1,024                 conv2d_96   |                                       Eltwise/mul_[94]     
                                                                                                                                  nl_97   | 
------ -------------------------------------------------- ----------------------- --------------- ----------- ------------------------- --- ----------------- ------------------- -------------------- 
99     conv2d_99 (Conv2D, CONV_2D)                        [b:1,h:8,w:8,c:16]      2,320/2,368         147,472                eltwise_98   |                                       Conv2D_[95]          
------ -------------------------------------------------- ----------------------- --------------- ----------- ------------------------- --- ----------------- ------------------- -------------------- 
100    nl_100 (Nonlinearity, LOGISTIC)                    [b:1,h:8,w:8,c:16]                           10,240                 conv2d_99   |                   -9,216(-90.0%)      Nonlinearity_[96]    
------ -------------------------------------------------- ----------------------- --------------- ----------- ------------------------- --- ----------------- ------------------- -------------------- 
101    eltwise_101 (Eltwise, MUL)                         [b:1,h:8,w:8,c:16]                            1,024                 conv2d_99   |                                       Eltwise/mul_[97]     
                                                                                                                                 nl_100   | 
------ -------------------------------------------------- ----------------------- --------------- ----------- ------------------------- --- ----------------- ------------------- -------------------- 
102    concat_102 (Concat, CONCATENATION)                 [b:1,h:8,w:8,c:64]                                                   slice_32   |                                       Concat_[99]          
                                                                                                                               slice_33   | 
                                                                                                                             eltwise_67   | 
                                                                                                                            eltwise_101   | 
------ -------------------------------------------------- ----------------------- --------------- ----------- ------------------------- --- ----------------- ------------------- -------------------- 
103    conv2d_103 (Conv2D, CONV_2D)                       [b:1,h:8,w:8,c:8]       520/544              32,776                concat_102   |                                       Conv2D_[100]         
------ -------------------------------------------------- ----------------------- --------------- ----------- ------------------------- --- ----------------- ------------------- -------------------- 
104    nl_104 (Nonlinearity, LOGISTIC)                    [b:1,h:8,w:8,c:8]                             5,120                conv2d_103   |                   -4,608(-90.0%)      Nonlinearity_[101]   
------ -------------------------------------------------- ----------------------- --------------- ----------- ------------------------- --- ----------------- ------------------- -------------------- 
105    eltwise_105 (Eltwise, MUL)                         [b:1,h:8,w:8,c:8]                               512                conv2d_103   |                                       Eltwise/mul_[102]    
                                                                                                                                 nl_104   | 
------ -------------------------------------------------- ----------------------- --------------- ----------- ------------------------- --- ----------------- ------------------- -------------------- 
106    pool_106 (Pool, AVERAGE_POOL_2D)                   [b:1,h:7,w:7,c:8]                             1,568               eltwise_105   |                                       Pool_[103]           
------ -------------------------------------------------- ----------------------- --------------- ----------- ------------------------- --- ----------------- ------------------- -------------------- 
107    pad_107 (Pad, PAD)                                 [b:1,h:9,w:9,c:8]                                                    pool_106   | +1,216(+100.0%)   +18,448(+100.0%)    Conv2D_[104]         
------ -------------------------------------------------- ----------------------- --------------- ----------- ------------------------- --- ----------------- ------------------- -------------------- 
108    conv2d_108 (Conv2D, CONV_2D)                       [b:1,h:4,w:4,c:16]      1,168/1,216          18,448                   pad_107   | -1,216(-100.0%)   -18,448(-100.0%)    
------ -------------------------------------------------- ----------------------- --------------- ----------- ------------------------- --- ----------------- ------------------- -------------------- 
109    nl_109 (Nonlinearity, LOGISTIC)                    [b:1,h:4,w:4,c:16]                            2,560                conv2d_108   |                   -2,304(-90.0%)      Nonlinearity_[105]   
------ -------------------------------------------------- ----------------------- --------------- ----------- ------------------------- --- ----------------- ------------------- -------------------- 
110    eltwise_110 (Eltwise, MUL)                         [b:1,h:4,w:4,c:16]                              256                conv2d_108   |                                       Eltwise/mul_[106]    
                                                                                                                                 nl_109   | 
------ -------------------------------------------------- ----------------------- --------------- ----------- ------------------------- --- ----------------- ------------------- -------------------- 
111    conv2d_111 (Conv2D, CONV_2D)                       [b:1,h:4,w:4,c:48]      816/960              12,336               eltwise_110   |                                       Conv2D_[107]         
------ -------------------------------------------------- ----------------------- --------------- ----------- ------------------------- --- ----------------- ------------------- -------------------- 
112    nl_112 (Nonlinearity, LOGISTIC)                    [b:1,h:4,w:4,c:48]                            7,680                conv2d_111   |                   -6,912(-90.0%)      Nonlinearity_[108]   
------ -------------------------------------------------- ----------------------- --------------- ----------- ------------------------- --- ----------------- ------------------- -------------------- 
113    eltwise_113 (Eltwise, MUL)                         [b:1,h:4,w:4,c:48]                              768                conv2d_111   |                                       Eltwise/mul_[109]    
                                                                                                                                 nl_112   | 
------ -------------------------------------------------- ----------------------- --------------- ----------- ------------------------- --- ----------------- ------------------- -------------------- 
114    slice_114 (Slice, STRIDED_SLICE)                   [b:1,h:4,w:4,c:24]                                                eltwise_113   |                                       Slice_[179]          
------ -------------------------------------------------- ----------------------- --------------- ----------- ------------------------- --- ----------------- ------------------- -------------------- 
115    slice_115 (Slice, STRIDED_SLICE)                   [b:1,h:4,w:4,c:24]                                                eltwise_113   |                                       Slice_[110]          
------ -------------------------------------------------- ----------------------- --------------- ----------- ------------------------- --- ----------------- ------------------- -------------------- 
116    conv2d_116 (Conv2D, CONV_2D)                       [b:1,h:4,w:4,c:12]      300/336               4,620                 slice_115   |                                       Conv2D_[114]         
------ -------------------------------------------------- ----------------------- --------------- ----------- ------------------------- --- ----------------- ------------------- -------------------- 
117    nl_117 (Nonlinearity, LOGISTIC)                    [b:1,h:4,w:4,c:12]                            1,920                conv2d_116   |                   -1,728(-90.0%)      Nonlinearity_[115]   
------ -------------------------------------------------- ----------------------- --------------- ----------- ------------------------- --- ----------------- ------------------- -------------------- 
118    eltwise_118 (Eltwise, MUL)                         [b:1,h:4,w:4,c:12]                              192                conv2d_116   |                                       Eltwise/mul_[116]    
                                                                                                                                 nl_117   | 
------ -------------------------------------------------- ----------------------- --------------- ----------- ------------------------- --- ----------------- ------------------- -------------------- 
119    conv2d_119 (Conv2D, CONV_2D)                       [b:1,h:4,w:4,c:12]      1,308/1,344          20,748               eltwise_118   |                                       Conv2D_[117]         
------ -------------------------------------------------- ----------------------- --------------- ----------- ------------------------- --- ----------------- ------------------- -------------------- 
120    nl_120 (Nonlinearity, LOGISTIC)                    [b:1,h:4,w:4,c:12]                            1,920                conv2d_119   |                   -1,728(-90.0%)      Nonlinearity_[118]   
------ -------------------------------------------------- ----------------------- --------------- ----------- ------------------------- --- ----------------- ------------------- -------------------- 
121    eltwise_121 (Eltwise, MUL)                         [b:1,h:4,w:4,c:12]                              192                conv2d_119   |                                       Eltwise/mul_[119]    
                                                                                                                                 nl_120   | 
------ -------------------------------------------------- ----------------------- --------------- ----------- ------------------------- --- ----------------- ------------------- -------------------- 
122    conv2d_122 (Conv2D, CONV_2D)                       [b:1,h:4,w:4,c:12]      1,308/1,344          20,748               eltwise_121   |                                       Conv2D_[120]         
------ -------------------------------------------------- ----------------------- --------------- ----------- ------------------------- --- ----------------- ------------------- -------------------- 
123    nl_123 (Nonlinearity, LOGISTIC)                    [b:1,h:4,w:4,c:12]                            1,920                conv2d_122   |                   -1,728(-90.0%)      Nonlinearity_[121]   
------ -------------------------------------------------- ----------------------- --------------- ----------- ------------------------- --- ----------------- ------------------- -------------------- 
124    eltwise_124 (Eltwise, MUL)                         [b:1,h:4,w:4,c:12]                              192                conv2d_122   |                                       Eltwise/mul_[122]    
                                                                                                                                 nl_123   | 
------ -------------------------------------------------- ----------------------- --------------- ----------- ------------------------- --- ----------------- ------------------- -------------------- 
125    eltwise_125 (Eltwise, ADD)                         [b:1,h:4,w:4,c:12]                              192               eltwise_118   |                                       Eltwise/add_[123]    
                                                                                                                            eltwise_124   | 
------ -------------------------------------------------- ----------------------- --------------- ----------- ------------------------- --- ----------------- ------------------- -------------------- 
126    conv2d_126 (Conv2D, CONV_2D)                       [b:1,h:4,w:4,c:12]      1,308/1,344          20,748               eltwise_125   |                                       Conv2D_[124]         
------ -------------------------------------------------- ----------------------- --------------- ----------- ------------------------- --- ----------------- ------------------- -------------------- 
127    nl_127 (Nonlinearity, LOGISTIC)                    [b:1,h:4,w:4,c:12]                            1,920                conv2d_126   |                   -1,728(-90.0%)      Nonlinearity_[125]   
------ -------------------------------------------------- ----------------------- --------------- ----------- ------------------------- --- ----------------- ------------------- -------------------- 
128    eltwise_128 (Eltwise, MUL)                         [b:1,h:4,w:4,c:12]                              192                conv2d_126   |                                       Eltwise/mul_[126]    
                                                                                                                                 nl_127   | 
------ -------------------------------------------------- ----------------------- --------------- ----------- ------------------------- --- ----------------- ------------------- -------------------- 
129    conv2d_129 (Conv2D, CONV_2D)                       [b:1,h:4,w:4,c:12]      1,308/1,344          20,748               eltwise_128   |                                       Conv2D_[127]         
------ -------------------------------------------------- ----------------------- --------------- ----------- ------------------------- --- ----------------- ------------------- -------------------- 
130    nl_130 (Nonlinearity, LOGISTIC)                    [b:1,h:4,w:4,c:12]                            1,920                conv2d_129   |                   -1,728(-90.0%)      Nonlinearity_[128]   
------ -------------------------------------------------- ----------------------- --------------- ----------- ------------------------- --- ----------------- ------------------- -------------------- 
131    eltwise_131 (Eltwise, MUL)                         [b:1,h:4,w:4,c:12]                              192                conv2d_129   |                                       Eltwise/mul_[129]    
                                                                                                                                 nl_130   | 
------ -------------------------------------------------- ----------------------- --------------- ----------- ------------------------- --- ----------------- ------------------- -------------------- 
132    eltwise_132 (Eltwise, ADD)                         [b:1,h:4,w:4,c:12]                              192               eltwise_125   |                                       Eltwise/add_[130]    
                                                                                                                            eltwise_131   | 
------ -------------------------------------------------- ----------------------- --------------- ----------- ------------------------- --- ----------------- ------------------- -------------------- 
133    conv2d_133 (Conv2D, CONV_2D)                       [b:1,h:4,w:4,c:12]      1,308/1,344          20,748               eltwise_132   |                                       Conv2D_[131]         
------ -------------------------------------------------- ----------------------- --------------- ----------- ------------------------- --- ----------------- ------------------- -------------------- 
134    nl_134 (Nonlinearity, LOGISTIC)                    [b:1,h:4,w:4,c:12]                            1,920                conv2d_133   |                   -1,728(-90.0%)      Nonlinearity_[132]   
------ -------------------------------------------------- ----------------------- --------------- ----------- ------------------------- --- ----------------- ------------------- -------------------- 
135    eltwise_135 (Eltwise, MUL)                         [b:1,h:4,w:4,c:12]                              192                conv2d_133   |                                       Eltwise/mul_[133]    
                                                                                                                                 nl_134   | 
------ -------------------------------------------------- ----------------------- --------------- ----------- ------------------------- --- ----------------- ------------------- -------------------- 
136    conv2d_136 (Conv2D, CONV_2D)                       [b:1,h:4,w:4,c:12]      1,308/1,344          20,748               eltwise_135   |                                       Conv2D_[134]         
------ -------------------------------------------------- ----------------------- --------------- ----------- ------------------------- --- ----------------- ------------------- -------------------- 
137    nl_137 (Nonlinearity, LOGISTIC)                    [b:1,h:4,w:4,c:12]                            1,920                conv2d_136   |                   -1,728(-90.0%)      Nonlinearity_[135]   
------ -------------------------------------------------- ----------------------- --------------- ----------- ------------------------- --- ----------------- ------------------- -------------------- 
138    eltwise_138 (Eltwise, MUL)                         [b:1,h:4,w:4,c:12]                              192                conv2d_136   |                                       Eltwise/mul_[136]    
                                                                                                                                 nl_137   | 
------ -------------------------------------------------- ----------------------- --------------- ----------- ------------------------- --- ----------------- ------------------- -------------------- 
139    eltwise_139 (Eltwise, ADD)                         [b:1,h:4,w:4,c:12]                              192               eltwise_132   |                                       Eltwise/add_[137]    
                                                                                                                            eltwise_138   | 
------ -------------------------------------------------- ----------------------- --------------- ----------- ------------------------- --- ----------------- ------------------- -------------------- 
140    conv2d_140 (Conv2D, CONV_2D)                       [b:1,h:4,w:4,c:12]      300/336               4,620                 slice_115   |                                       Conv2D_[111]         
------ -------------------------------------------------- ----------------------- --------------- ----------- ------------------------- --- ----------------- ------------------- -------------------- 
141    nl_141 (Nonlinearity, LOGISTIC)                    [b:1,h:4,w:4,c:12]                            1,920                conv2d_140   |                   -1,728(-90.0%)      Nonlinearity_[112]   
------ -------------------------------------------------- ----------------------- --------------- ----------- ------------------------- --- ----------------- ------------------- -------------------- 
142    eltwise_142 (Eltwise, MUL)                         [b:1,h:4,w:4,c:12]                              192                conv2d_140   |                                       Eltwise/mul_[113]    
                                                                                                                                 nl_141   | 
------ -------------------------------------------------- ----------------------- --------------- ----------- ------------------------- --- ----------------- ------------------- -------------------- 
143    concat_143 (Concat, CONCATENATION)                 [b:1,h:4,w:4,c:24]                                                eltwise_139   |                                       Concat_[138]         
                                                                                                                            eltwise_142   | 
------ -------------------------------------------------- ----------------------- --------------- ----------- ------------------------- --- ----------------- ------------------- -------------------- 
144    conv2d_144 (Conv2D, CONV_2D)                       [b:1,h:4,w:4,c:24]      600/672               9,240                concat_143   |                                       Conv2D_[139]         
------ -------------------------------------------------- ----------------------- --------------- ----------- ------------------------- --- ----------------- ------------------- -------------------- 
145    nl_145 (Nonlinearity, LOGISTIC)                    [b:1,h:4,w:4,c:24]                            3,840                conv2d_144   |                   -3,456(-90.0%)      Nonlinearity_[140]   
------ -------------------------------------------------- ----------------------- --------------- ----------- ------------------------- --- ----------------- ------------------- -------------------- 
146    eltwise_146 (Eltwise, MUL)                         [b:1,h:4,w:4,c:24]                              384                conv2d_144   |                                       Eltwise/mul_[141]    
                                                                                                                                 nl_145   | 
------ -------------------------------------------------- ----------------------- --------------- ----------- ------------------------- --- ----------------- ------------------- -------------------- 
147    conv2d_147 (Conv2D, CONV_2D)                       [b:1,h:4,w:4,c:24]      5,208/5,280          82,968               eltwise_146   |                                       Conv2D_[142]         
------ -------------------------------------------------- ----------------------- --------------- ----------- ------------------------- --- ----------------- ------------------- -------------------- 
148    nl_148 (Nonlinearity, LOGISTIC)                    [b:1,h:4,w:4,c:24]                            3,840                conv2d_147   |                   -3,456(-90.0%)      Nonlinearity_[143]   
------ -------------------------------------------------- ----------------------- --------------- ----------- ------------------------- --- ----------------- ------------------- -------------------- 
149    eltwise_149 (Eltwise, MUL)                         [b:1,h:4,w:4,c:24]                              384                conv2d_147   |                                       Eltwise/mul_[144]    
                                                                                                                                 nl_148   | 
------ -------------------------------------------------- ----------------------- --------------- ----------- ------------------------- --- ----------------- ------------------- -------------------- 
150    conv2d_150 (Conv2D, CONV_2D)                       [b:1,h:4,w:4,c:12]      300/336               4,620               eltwise_149   |                                       Conv2D_[148]         
------ -------------------------------------------------- ----------------------- --------------- ----------- ------------------------- --- ----------------- ------------------- -------------------- 
151    nl_151 (Nonlinearity, LOGISTIC)                    [b:1,h:4,w:4,c:12]                            1,920                conv2d_150   |                   -1,728(-90.0%)      Nonlinearity_[149]   
------ -------------------------------------------------- ----------------------- --------------- ----------- ------------------------- --- ----------------- ------------------- -------------------- 
152    eltwise_152 (Eltwise, MUL)                         [b:1,h:4,w:4,c:12]                              192                conv2d_150   |                                       Eltwise/mul_[150]    
                                                                                                                                 nl_151   | 
------ -------------------------------------------------- ----------------------- --------------- ----------- ------------------------- --- ----------------- ------------------- -------------------- 
153    conv2d_153 (Conv2D, CONV_2D)                       [b:1,h:4,w:4,c:12]      1,308/1,344          20,748               eltwise_152   |                                       Conv2D_[151]         
------ -------------------------------------------------- ----------------------- --------------- ----------- ------------------------- --- ----------------- ------------------- -------------------- 
154    nl_154 (Nonlinearity, LOGISTIC)                    [b:1,h:4,w:4,c:12]                            1,920                conv2d_153   |                   -1,728(-90.0%)      Nonlinearity_[152]   
------ -------------------------------------------------- ----------------------- --------------- ----------- ------------------------- --- ----------------- ------------------- -------------------- 
155    eltwise_155 (Eltwise, MUL)                         [b:1,h:4,w:4,c:12]                              192                conv2d_153   |                                       Eltwise/mul_[153]    
                                                                                                                                 nl_154   | 
------ -------------------------------------------------- ----------------------- --------------- ----------- ------------------------- --- ----------------- ------------------- -------------------- 
156    conv2d_156 (Conv2D, CONV_2D)                       [b:1,h:4,w:4,c:12]      1,308/1,344          20,748               eltwise_155   |                                       Conv2D_[154]         
------ -------------------------------------------------- ----------------------- --------------- ----------- ------------------------- --- ----------------- ------------------- -------------------- 
157    nl_157 (Nonlinearity, LOGISTIC)                    [b:1,h:4,w:4,c:12]                            1,920                conv2d_156   |                   -1,728(-90.0%)      Nonlinearity_[155]   
------ -------------------------------------------------- ----------------------- --------------- ----------- ------------------------- --- ----------------- ------------------- -------------------- 
158    eltwise_158 (Eltwise, MUL)                         [b:1,h:4,w:4,c:12]                              192                conv2d_156   |                                       Eltwise/mul_[156]    
                                                                                                                                 nl_157   | 
------ -------------------------------------------------- ----------------------- --------------- ----------- ------------------------- --- ----------------- ------------------- -------------------- 
159    eltwise_159 (Eltwise, ADD)                         [b:1,h:4,w:4,c:12]                              192               eltwise_152   |                                       Eltwise/add_[157]    
                                                                                                                            eltwise_158   | 
------ -------------------------------------------------- ----------------------- --------------- ----------- ------------------------- --- ----------------- ------------------- -------------------- 
160    conv2d_160 (Conv2D, CONV_2D)                       [b:1,h:4,w:4,c:12]      1,308/1,344          20,748               eltwise_159   |                                       Conv2D_[158]         
------ -------------------------------------------------- ----------------------- --------------- ----------- ------------------------- --- ----------------- ------------------- -------------------- 
161    nl_161 (Nonlinearity, LOGISTIC)                    [b:1,h:4,w:4,c:12]                            1,920                conv2d_160   |                   -1,728(-90.0%)      Nonlinearity_[159]   
------ -------------------------------------------------- ----------------------- --------------- ----------- ------------------------- --- ----------------- ------------------- -------------------- 
162    eltwise_162 (Eltwise, MUL)                         [b:1,h:4,w:4,c:12]                              192                conv2d_160   |                                       Eltwise/mul_[160]    
                                                                                                                                 nl_161   | 
------ -------------------------------------------------- ----------------------- --------------- ----------- ------------------------- --- ----------------- ------------------- -------------------- 
163    conv2d_163 (Conv2D, CONV_2D)                       [b:1,h:4,w:4,c:12]      1,308/1,344          20,748               eltwise_162   |                                       Conv2D_[161]         
------ -------------------------------------------------- ----------------------- --------------- ----------- ------------------------- --- ----------------- ------------------- -------------------- 
164    nl_164 (Nonlinearity, LOGISTIC)                    [b:1,h:4,w:4,c:12]                            1,920                conv2d_163   |                   -1,728(-90.0%)      Nonlinearity_[162]   
------ -------------------------------------------------- ----------------------- --------------- ----------- ------------------------- --- ----------------- ------------------- -------------------- 
165    eltwise_165 (Eltwise, MUL)                         [b:1,h:4,w:4,c:12]                              192                conv2d_163   |                                       Eltwise/mul_[163]    
                                                                                                                                 nl_164   | 
------ -------------------------------------------------- ----------------------- --------------- ----------- ------------------------- --- ----------------- ------------------- -------------------- 
166    eltwise_166 (Eltwise, ADD)                         [b:1,h:4,w:4,c:12]                              192               eltwise_159   |                                       Eltwise/add_[164]    
                                                                                                                            eltwise_165   | 
------ -------------------------------------------------- ----------------------- --------------- ----------- ------------------------- --- ----------------- ------------------- -------------------- 
167    conv2d_167 (Conv2D, CONV_2D)                       [b:1,h:4,w:4,c:12]      1,308/1,344          20,748               eltwise_166   |                                       Conv2D_[165]         
------ -------------------------------------------------- ----------------------- --------------- ----------- ------------------------- --- ----------------- ------------------- -------------------- 
168    nl_168 (Nonlinearity, LOGISTIC)                    [b:1,h:4,w:4,c:12]                            1,920                conv2d_167   |                   -1,728(-90.0%)      Nonlinearity_[166]   
------ -------------------------------------------------- ----------------------- --------------- ----------- ------------------------- --- ----------------- ------------------- -------------------- 
169    eltwise_169 (Eltwise, MUL)                         [b:1,h:4,w:4,c:12]                              192                conv2d_167   |                                       Eltwise/mul_[167]    
                                                                                                                                 nl_168   | 
------ -------------------------------------------------- ----------------------- --------------- ----------- ------------------------- --- ----------------- ------------------- -------------------- 
170    conv2d_170 (Conv2D, CONV_2D)                       [b:1,h:4,w:4,c:12]      1,308/1,344          20,748               eltwise_169   |                                       Conv2D_[168]         
------ -------------------------------------------------- ----------------------- --------------- ----------- ------------------------- --- ----------------- ------------------- -------------------- 
171    nl_171 (Nonlinearity, LOGISTIC)                    [b:1,h:4,w:4,c:12]                            1,920                conv2d_170   |                   -1,728(-90.0%)      Nonlinearity_[169]   
------ -------------------------------------------------- ----------------------- --------------- ----------- ------------------------- --- ----------------- ------------------- -------------------- 
172    eltwise_172 (Eltwise, MUL)                         [b:1,h:4,w:4,c:12]                              192                conv2d_170   |                                       Eltwise/mul_[170]    
                                                                                                                                 nl_171   | 
------ -------------------------------------------------- ----------------------- --------------- ----------- ------------------------- --- ----------------- ------------------- -------------------- 
173    eltwise_173 (Eltwise, ADD)                         [b:1,h:4,w:4,c:12]                              192               eltwise_166   |                                       Eltwise/add_[171]    
                                                                                                                            eltwise_172   | 
------ -------------------------------------------------- ----------------------- --------------- ----------- ------------------------- --- ----------------- ------------------- -------------------- 
174    conv2d_174 (Conv2D, CONV_2D)                       [b:1,h:4,w:4,c:12]      300/336               4,620               eltwise_149   |                                       Conv2D_[145]         
------ -------------------------------------------------- ----------------------- --------------- ----------- ------------------------- --- ----------------- ------------------- -------------------- 
175    nl_175 (Nonlinearity, LOGISTIC)                    [b:1,h:4,w:4,c:12]                            1,920                conv2d_174   |                   -1,728(-90.0%)      Nonlinearity_[146]   
------ -------------------------------------------------- ----------------------- --------------- ----------- ------------------------- --- ----------------- ------------------- -------------------- 
176    eltwise_176 (Eltwise, MUL)                         [b:1,h:4,w:4,c:12]                              192                conv2d_174   |                                       Eltwise/mul_[147]    
                                                                                                                                 nl_175   | 
------ -------------------------------------------------- ----------------------- --------------- ----------- ------------------------- --- ----------------- ------------------- -------------------- 
177    concat_177 (Concat, CONCATENATION)                 [b:1,h:4,w:4,c:24]                                                eltwise_173   |                                       Concat_[172]         
                                                                                                                            eltwise_176   | 
------ -------------------------------------------------- ----------------------- --------------- ----------- ------------------------- --- ----------------- ------------------- -------------------- 
178    conv2d_178 (Conv2D, CONV_2D)                       [b:1,h:4,w:4,c:24]      600/672               9,240                concat_177   |                                       Conv2D_[173]         
------ -------------------------------------------------- ----------------------- --------------- ----------- ------------------------- --- ----------------- ------------------- -------------------- 
179    nl_179 (Nonlinearity, LOGISTIC)                    [b:1,h:4,w:4,c:24]                            3,840                conv2d_178   |                   -3,456(-90.0%)      Nonlinearity_[174]   
------ -------------------------------------------------- ----------------------- --------------- ----------- ------------------------- --- ----------------- ------------------- -------------------- 
180    eltwise_180 (Eltwise, MUL)                         [b:1,h:4,w:4,c:24]                              384                conv2d_178   |                                       Eltwise/mul_[175]    
                                                                                                                                 nl_179   | 
------ -------------------------------------------------- ----------------------- --------------- ----------- ------------------------- --- ----------------- ------------------- -------------------- 
181    conv2d_181 (Conv2D, CONV_2D)                       [b:1,h:4,w:4,c:24]      5,208/5,280          82,968               eltwise_180   |                                       Conv2D_[176]         
------ -------------------------------------------------- ----------------------- --------------- ----------- ------------------------- --- ----------------- ------------------- -------------------- 
182    nl_182 (Nonlinearity, LOGISTIC)                    [b:1,h:4,w:4,c:24]                            3,840                conv2d_181   |                   -3,456(-90.0%)      Nonlinearity_[177]   
------ -------------------------------------------------- ----------------------- --------------- ----------- ------------------------- --- ----------------- ------------------- -------------------- 
183    eltwise_183 (Eltwise, MUL)                         [b:1,h:4,w:4,c:24]                              384                conv2d_181   |                                       Eltwise/mul_[178]    
                                                                                                                                 nl_182   | 
------ -------------------------------------------------- ----------------------- --------------- ----------- ------------------------- --- ----------------- ------------------- -------------------- 
184    concat_184 (Concat, CONCATENATION)                 [b:1,h:4,w:4,c:96]                                                  slice_114   |                                       Concat_[180]         
                                                                                                                              slice_115   | 
                                                                                                                            eltwise_149   | 
                                                                                                                            eltwise_183   | 
------ -------------------------------------------------- ----------------------- --------------- ----------- ------------------------- --- ----------------- ------------------- -------------------- 
185    conv2d_185 (Conv2D, CONV_2D)                       [b:1,h:4,w:4,c:16]      1,552/1,600          24,592                concat_184   |                                       Conv2D_[181]         
------ -------------------------------------------------- ----------------------- --------------- ----------- ------------------------- --- ----------------- ------------------- -------------------- 
186    nl_186 (Nonlinearity, LOGISTIC)                    [b:1,h:4,w:4,c:16]                            2,560                conv2d_185   |                   -2,304(-90.0%)      Nonlinearity_[182]   
------ -------------------------------------------------- ----------------------- --------------- ----------- ------------------------- --- ----------------- ------------------- -------------------- 
187    eltwise_187 (Eltwise, MUL)                         [b:1,h:4,w:4,c:16]                              256                conv2d_185   |                                       Eltwise/mul_[183]    
                                                                                                                                 nl_186   | 
------ -------------------------------------------------- ----------------------- --------------- ----------- ------------------------- --- ----------------- ------------------- -------------------- 
188    pool_188 (Pool, AVERAGE_POOL_2D)                   [b:1,h:3,w:3,c:16]                              576               eltwise_187   |                                       Pool_[184]           
------ -------------------------------------------------- ----------------------- --------------- ----------- ------------------------- --- ----------------- ------------------- -------------------- 
189    pad_189 (Pad, PAD)                                 [b:1,h:5,w:5,c:16]                                                   pool_188   | +2,368(+100.0%)   +9,232(+100.0%)     Conv2D_[185]         
------ -------------------------------------------------- ----------------------- --------------- ----------- ------------------------- --- ----------------- ------------------- -------------------- 
190    conv2d_190 (Conv2D, CONV_2D)                       [b:1,h:2,w:2,c:16]      2,320/2,368           9,232                   pad_189   | -2,368(-100.0%)   -9,232(-100.0%)     
------ -------------------------------------------------- ----------------------- --------------- ----------- ------------------------- --- ----------------- ------------------- -------------------- 
191    nl_191 (Nonlinearity, LOGISTIC)                    [b:1,h:2,w:2,c:16]                              640                conv2d_190   |                   -576(-90.0%)        Nonlinearity_[186]   
------ -------------------------------------------------- ----------------------- --------------- ----------- ------------------------- --- ----------------- ------------------- -------------------- 
192    eltwise_192 (Eltwise, MUL)                         [b:1,h:2,w:2,c:16]                               64                conv2d_190   |                                       Eltwise/mul_[187]    
                                                                                                                                 nl_191   | 
------ -------------------------------------------------- ----------------------- --------------- ----------- ------------------------- --- ----------------- ------------------- -------------------- 
193    conv2d_193 (Conv2D, CONV_2D)                       [b:1,h:2,w:2,c:64]      1,088/1,280           4,160               eltwise_192   |                                       Conv2D_[188]         
------ -------------------------------------------------- ----------------------- --------------- ----------- ------------------------- --- ----------------- ------------------- -------------------- 
194    nl_194 (Nonlinearity, LOGISTIC)                    [b:1,h:2,w:2,c:64]                            2,560                conv2d_193   |                   -2,304(-90.0%)      Nonlinearity_[189]   
------ -------------------------------------------------- ----------------------- --------------- ----------- ------------------------- --- ----------------- ------------------- -------------------- 
195    eltwise_195 (Eltwise, MUL)                         [b:1,h:2,w:2,c:64]                              256                conv2d_193   |                                       Eltwise/mul_[190]    
                                                                                                                                 nl_194   | 
------ -------------------------------------------------- ----------------------- --------------- ----------- ------------------------- --- ----------------- ------------------- -------------------- 
196    slice_196 (Slice, STRIDED_SLICE)                   [b:1,h:2,w:2,c:32]                                                eltwise_195   |                                       Slice_[260]          
------ -------------------------------------------------- ----------------------- --------------- ----------- ------------------------- --- ----------------- ------------------- -------------------- 
197    slice_197 (Slice, STRIDED_SLICE)                   [b:1,h:2,w:2,c:32]                                                eltwise_195   |                                       Slice_[191]          
------ -------------------------------------------------- ----------------------- --------------- ----------- ------------------------- --- ----------------- ------------------- -------------------- 
198    conv2d_198 (Conv2D, CONV_2D)                       [b:1,h:2,w:2,c:16]      528/576               2,064                 slice_197   |                                       Conv2D_[195]         
------ -------------------------------------------------- ----------------------- --------------- ----------- ------------------------- --- ----------------- ------------------- -------------------- 
199    nl_199 (Nonlinearity, LOGISTIC)                    [b:1,h:2,w:2,c:16]                              640                conv2d_198   |                   -576(-90.0%)        Nonlinearity_[196]   
------ -------------------------------------------------- ----------------------- --------------- ----------- ------------------------- --- ----------------- ------------------- -------------------- 
200    eltwise_200 (Eltwise, MUL)                         [b:1,h:2,w:2,c:16]                               64                conv2d_198   |                                       Eltwise/mul_[197]    
                                                                                                                                 nl_199   | 
------ -------------------------------------------------- ----------------------- --------------- ----------- ------------------------- --- ----------------- ------------------- -------------------- 
201    conv2d_201 (Conv2D, CONV_2D)                       [b:1,h:2,w:2,c:16]      2,320/2,368           9,232               eltwise_200   |                                       Conv2D_[198]         
------ -------------------------------------------------- ----------------------- --------------- ----------- ------------------------- --- ----------------- ------------------- -------------------- 
202    nl_202 (Nonlinearity, LOGISTIC)                    [b:1,h:2,w:2,c:16]                              640                conv2d_201   |                   -576(-90.0%)        Nonlinearity_[199]   
------ -------------------------------------------------- ----------------------- --------------- ----------- ------------------------- --- ----------------- ------------------- -------------------- 
203    eltwise_203 (Eltwise, MUL)                         [b:1,h:2,w:2,c:16]                               64                conv2d_201   |                                       Eltwise/mul_[200]    
                                                                                                                                 nl_202   | 
------ -------------------------------------------------- ----------------------- --------------- ----------- ------------------------- --- ----------------- ------------------- -------------------- 
204    conv2d_204 (Conv2D, CONV_2D)                       [b:1,h:2,w:2,c:16]      2,320/2,368           9,232               eltwise_203   |                                       Conv2D_[201]         
------ -------------------------------------------------- ----------------------- --------------- ----------- ------------------------- --- ----------------- ------------------- -------------------- 
205    nl_205 (Nonlinearity, LOGISTIC)                    [b:1,h:2,w:2,c:16]                              640                conv2d_204   |                   -576(-90.0%)        Nonlinearity_[202]   
------ -------------------------------------------------- ----------------------- --------------- ----------- ------------------------- --- ----------------- ------------------- -------------------- 
206    eltwise_206 (Eltwise, MUL)                         [b:1,h:2,w:2,c:16]                               64                conv2d_204   |                                       Eltwise/mul_[203]    
                                                                                                                                 nl_205   | 
------ -------------------------------------------------- ----------------------- --------------- ----------- ------------------------- --- ----------------- ------------------- -------------------- 
207    eltwise_207 (Eltwise, ADD)                         [b:1,h:2,w:2,c:16]                               64               eltwise_200   |                                       Eltwise/add_[204]    
                                                                                                                            eltwise_206   | 
------ -------------------------------------------------- ----------------------- --------------- ----------- ------------------------- --- ----------------- ------------------- -------------------- 
208    conv2d_208 (Conv2D, CONV_2D)                       [b:1,h:2,w:2,c:16]      2,320/2,368           9,232               eltwise_207   |                                       Conv2D_[205]         
------ -------------------------------------------------- ----------------------- --------------- ----------- ------------------------- --- ----------------- ------------------- -------------------- 
209    nl_209 (Nonlinearity, LOGISTIC)                    [b:1,h:2,w:2,c:16]                              640                conv2d_208   |                   -576(-90.0%)        Nonlinearity_[206]   
------ -------------------------------------------------- ----------------------- --------------- ----------- ------------------------- --- ----------------- ------------------- -------------------- 
210    eltwise_210 (Eltwise, MUL)                         [b:1,h:2,w:2,c:16]                               64                conv2d_208   |                                       Eltwise/mul_[207]    
                                                                                                                                 nl_209   | 
------ -------------------------------------------------- ----------------------- --------------- ----------- ------------------------- --- ----------------- ------------------- -------------------- 
211    conv2d_211 (Conv2D, CONV_2D)                       [b:1,h:2,w:2,c:16]      2,320/2,368           9,232               eltwise_210   |                                       Conv2D_[208]         
------ -------------------------------------------------- ----------------------- --------------- ----------- ------------------------- --- ----------------- ------------------- -------------------- 
212    nl_212 (Nonlinearity, LOGISTIC)                    [b:1,h:2,w:2,c:16]                              640                conv2d_211   |                   -576(-90.0%)        Nonlinearity_[209]   
------ -------------------------------------------------- ----------------------- --------------- ----------- ------------------------- --- ----------------- ------------------- -------------------- 
213    eltwise_213 (Eltwise, MUL)                         [b:1,h:2,w:2,c:16]                               64                conv2d_211   |                                       Eltwise/mul_[210]    
                                                                                                                                 nl_212   | 
------ -------------------------------------------------- ----------------------- --------------- ----------- ------------------------- --- ----------------- ------------------- -------------------- 
214    eltwise_214 (Eltwise, ADD)                         [b:1,h:2,w:2,c:16]                               64               eltwise_207   |                                       Eltwise/add_[211]    
                                                                                                                            eltwise_213   | 
------ -------------------------------------------------- ----------------------- --------------- ----------- ------------------------- --- ----------------- ------------------- -------------------- 
215    conv2d_215 (Conv2D, CONV_2D)                       [b:1,h:2,w:2,c:16]      2,320/2,368           9,232               eltwise_214   |                                       Conv2D_[212]         
------ -------------------------------------------------- ----------------------- --------------- ----------- ------------------------- --- ----------------- ------------------- -------------------- 
216    nl_216 (Nonlinearity, LOGISTIC)                    [b:1,h:2,w:2,c:16]                              640                conv2d_215   |                   -576(-90.0%)        Nonlinearity_[213]   
------ -------------------------------------------------- ----------------------- --------------- ----------- ------------------------- --- ----------------- ------------------- -------------------- 
217    eltwise_217 (Eltwise, MUL)                         [b:1,h:2,w:2,c:16]                               64                conv2d_215   |                                       Eltwise/mul_[214]    
                                                                                                                                 nl_216   | 
------ -------------------------------------------------- ----------------------- --------------- ----------- ------------------------- --- ----------------- ------------------- -------------------- 
218    conv2d_218 (Conv2D, CONV_2D)                       [b:1,h:2,w:2,c:16]      2,320/2,368           9,232               eltwise_217   |                                       Conv2D_[215]         
------ -------------------------------------------------- ----------------------- --------------- ----------- ------------------------- --- ----------------- ------------------- -------------------- 
219    nl_219 (Nonlinearity, LOGISTIC)                    [b:1,h:2,w:2,c:16]                              640                conv2d_218   |                   -576(-90.0%)        Nonlinearity_[216]   
------ -------------------------------------------------- ----------------------- --------------- ----------- ------------------------- --- ----------------- ------------------- -------------------- 
220    eltwise_220 (Eltwise, MUL)                         [b:1,h:2,w:2,c:16]                               64                conv2d_218   |                                       Eltwise/mul_[217]    
                                                                                                                                 nl_219   | 
------ -------------------------------------------------- ----------------------- --------------- ----------- ------------------------- --- ----------------- ------------------- -------------------- 
221    eltwise_221 (Eltwise, ADD)                         [b:1,h:2,w:2,c:16]                               64               eltwise_214   |                                       Eltwise/add_[218]    
                                                                                                                            eltwise_220   | 
------ -------------------------------------------------- ----------------------- --------------- ----------- ------------------------- --- ----------------- ------------------- -------------------- 
222    conv2d_222 (Conv2D, CONV_2D)                       [b:1,h:2,w:2,c:16]      528/576               2,064                 slice_197   |                                       Conv2D_[192]         
------ -------------------------------------------------- ----------------------- --------------- ----------- ------------------------- --- ----------------- ------------------- -------------------- 
223    nl_223 (Nonlinearity, LOGISTIC)                    [b:1,h:2,w:2,c:16]                              640                conv2d_222   |                   -576(-90.0%)        Nonlinearity_[193]   
------ -------------------------------------------------- ----------------------- --------------- ----------- ------------------------- --- ----------------- ------------------- -------------------- 
224    eltwise_224 (Eltwise, MUL)                         [b:1,h:2,w:2,c:16]                               64                conv2d_222   |                                       Eltwise/mul_[194]    
                                                                                                                                 nl_223   | 
------ -------------------------------------------------- ----------------------- --------------- ----------- ------------------------- --- ----------------- ------------------- -------------------- 
225    concat_225 (Concat, CONCATENATION)                 [b:1,h:2,w:2,c:32]                                                eltwise_221   |                                       Concat_[219]         
                                                                                                                            eltwise_224   | 
------ -------------------------------------------------- ----------------------- --------------- ----------- ------------------------- --- ----------------- ------------------- -------------------- 
226    conv2d_226 (Conv2D, CONV_2D)                       [b:1,h:2,w:2,c:32]      1,056/1,152           4,128                concat_225   |                                       Conv2D_[220]         
------ -------------------------------------------------- ----------------------- --------------- ----------- ------------------------- --- ----------------- ------------------- -------------------- 
227    nl_227 (Nonlinearity, LOGISTIC)                    [b:1,h:2,w:2,c:32]                            1,280                conv2d_226   |                   -1,152(-90.0%)      Nonlinearity_[221]   
------ -------------------------------------------------- ----------------------- --------------- ----------- ------------------------- --- ----------------- ------------------- -------------------- 
228    eltwise_228 (Eltwise, MUL)                         [b:1,h:2,w:2,c:32]                              128                conv2d_226   |                                       Eltwise/mul_[222]    
                                                                                                                                 nl_227   | 
------ -------------------------------------------------- ----------------------- --------------- ----------- ------------------------- --- ----------------- ------------------- -------------------- 
229    conv2d_229 (Conv2D, CONV_2D)                       [b:1,h:2,w:2,c:32]      9,248/9,344          36,896               eltwise_228   |                                       Conv2D_[223]         
------ -------------------------------------------------- ----------------------- --------------- ----------- ------------------------- --- ----------------- ------------------- -------------------- 
230    nl_230 (Nonlinearity, LOGISTIC)                    [b:1,h:2,w:2,c:32]                            1,280                conv2d_229   |                   -1,152(-90.0%)      Nonlinearity_[224]   
------ -------------------------------------------------- ----------------------- --------------- ----------- ------------------------- --- ----------------- ------------------- -------------------- 
231    eltwise_231 (Eltwise, MUL)                         [b:1,h:2,w:2,c:32]                              128                conv2d_229   |                                       Eltwise/mul_[225]    
                                                                                                                                 nl_230   | 
------ -------------------------------------------------- ----------------------- --------------- ----------- ------------------------- --- ----------------- ------------------- -------------------- 
232    conv2d_232 (Conv2D, CONV_2D)                       [b:1,h:2,w:2,c:16]      528/576               2,064               eltwise_231   |                                       Conv2D_[229]         
------ -------------------------------------------------- ----------------------- --------------- ----------- ------------------------- --- ----------------- ------------------- -------------------- 
233    nl_233 (Nonlinearity, LOGISTIC)                    [b:1,h:2,w:2,c:16]                              640                conv2d_232   |                   -576(-90.0%)        Nonlinearity_[230]   
------ -------------------------------------------------- ----------------------- --------------- ----------- ------------------------- --- ----------------- ------------------- -------------------- 
234    eltwise_234 (Eltwise, MUL)                         [b:1,h:2,w:2,c:16]                               64                conv2d_232   |                                       Eltwise/mul_[231]    
                                                                                                                                 nl_233   | 
------ -------------------------------------------------- ----------------------- --------------- ----------- ------------------------- --- ----------------- ------------------- -------------------- 
235    conv2d_235 (Conv2D, CONV_2D)                       [b:1,h:2,w:2,c:16]      2,320/2,368           9,232               eltwise_234   |                                       Conv2D_[232]         
------ -------------------------------------------------- ----------------------- --------------- ----------- ------------------------- --- ----------------- ------------------- -------------------- 
236    nl_236 (Nonlinearity, LOGISTIC)                    [b:1,h:2,w:2,c:16]                              640                conv2d_235   |                   -576(-90.0%)        Nonlinearity_[233]   
------ -------------------------------------------------- ----------------------- --------------- ----------- ------------------------- --- ----------------- ------------------- -------------------- 
237    eltwise_237 (Eltwise, MUL)                         [b:1,h:2,w:2,c:16]                               64                conv2d_235   |                                       Eltwise/mul_[234]    
                                                                                                                                 nl_236   | 
------ -------------------------------------------------- ----------------------- --------------- ----------- ------------------------- --- ----------------- ------------------- -------------------- 
238    conv2d_238 (Conv2D, CONV_2D)                       [b:1,h:2,w:2,c:16]      2,320/2,368           9,232               eltwise_237   |                                       Conv2D_[235]         
------ -------------------------------------------------- ----------------------- --------------- ----------- ------------------------- --- ----------------- ------------------- -------------------- 
239    nl_239 (Nonlinearity, LOGISTIC)                    [b:1,h:2,w:2,c:16]                              640                conv2d_238   |                   -576(-90.0%)        Nonlinearity_[236]   
------ -------------------------------------------------- ----------------------- --------------- ----------- ------------------------- --- ----------------- ------------------- -------------------- 
240    eltwise_240 (Eltwise, MUL)                         [b:1,h:2,w:2,c:16]                               64                conv2d_238   |                                       Eltwise/mul_[237]    
                                                                                                                                 nl_239   | 
------ -------------------------------------------------- ----------------------- --------------- ----------- ------------------------- --- ----------------- ------------------- -------------------- 
241    eltwise_241 (Eltwise, ADD)                         [b:1,h:2,w:2,c:16]                               64               eltwise_234   |                                       Eltwise/add_[238]    
                                                                                                                            eltwise_240   | 
------ -------------------------------------------------- ----------------------- --------------- ----------- ------------------------- --- ----------------- ------------------- -------------------- 
242    conv2d_242 (Conv2D, CONV_2D)                       [b:1,h:2,w:2,c:16]      2,320/2,368           9,232               eltwise_241   |                                       Conv2D_[239]         
------ -------------------------------------------------- ----------------------- --------------- ----------- ------------------------- --- ----------------- ------------------- -------------------- 
243    nl_243 (Nonlinearity, LOGISTIC)                    [b:1,h:2,w:2,c:16]                              640                conv2d_242   |                   -576(-90.0%)        Nonlinearity_[240]   
------ -------------------------------------------------- ----------------------- --------------- ----------- ------------------------- --- ----------------- ------------------- -------------------- 
244    eltwise_244 (Eltwise, MUL)                         [b:1,h:2,w:2,c:16]                               64                conv2d_242   |                                       Eltwise/mul_[241]    
                                                                                                                                 nl_243   | 
------ -------------------------------------------------- ----------------------- --------------- ----------- ------------------------- --- ----------------- ------------------- -------------------- 
245    conv2d_245 (Conv2D, CONV_2D)                       [b:1,h:2,w:2,c:16]      2,320/2,368           9,232               eltwise_244   |                                       Conv2D_[242]         
------ -------------------------------------------------- ----------------------- --------------- ----------- ------------------------- --- ----------------- ------------------- -------------------- 
246    nl_246 (Nonlinearity, LOGISTIC)                    [b:1,h:2,w:2,c:16]                              640                conv2d_245   |                   -576(-90.0%)        Nonlinearity_[243]   
------ -------------------------------------------------- ----------------------- --------------- ----------- ------------------------- --- ----------------- ------------------- -------------------- 
247    eltwise_247 (Eltwise, MUL)                         [b:1,h:2,w:2,c:16]                               64                conv2d_245   |                                       Eltwise/mul_[244]    
                                                                                                                                 nl_246   | 
------ -------------------------------------------------- ----------------------- --------------- ----------- ------------------------- --- ----------------- ------------------- -------------------- 
248    eltwise_248 (Eltwise, ADD)                         [b:1,h:2,w:2,c:16]                               64               eltwise_241   |                                       Eltwise/add_[245]    
                                                                                                                            eltwise_247   | 
------ -------------------------------------------------- ----------------------- --------------- ----------- ------------------------- --- ----------------- ------------------- -------------------- 
249    conv2d_249 (Conv2D, CONV_2D)                       [b:1,h:2,w:2,c:16]      2,320/2,368           9,232               eltwise_248   |                                       Conv2D_[246]         
------ -------------------------------------------------- ----------------------- --------------- ----------- ------------------------- --- ----------------- ------------------- -------------------- 
250    nl_250 (Nonlinearity, LOGISTIC)                    [b:1,h:2,w:2,c:16]                              640                conv2d_249   |                   -576(-90.0%)        Nonlinearity_[247]   
------ -------------------------------------------------- ----------------------- --------------- ----------- ------------------------- --- ----------------- ------------------- -------------------- 
251    eltwise_251 (Eltwise, MUL)                         [b:1,h:2,w:2,c:16]                               64                conv2d_249   |                                       Eltwise/mul_[248]    
                                                                                                                                 nl_250   | 
------ -------------------------------------------------- ----------------------- --------------- ----------- ------------------------- --- ----------------- ------------------- -------------------- 
252    conv2d_252 (Conv2D, CONV_2D)                       [b:1,h:2,w:2,c:16]      2,320/2,368           9,232               eltwise_251   |                                       Conv2D_[249]         
------ -------------------------------------------------- ----------------------- --------------- ----------- ------------------------- --- ----------------- ------------------- -------------------- 
253    nl_253 (Nonlinearity, LOGISTIC)                    [b:1,h:2,w:2,c:16]                              640                conv2d_252   |                   -576(-90.0%)        Nonlinearity_[250]   
------ -------------------------------------------------- ----------------------- --------------- ----------- ------------------------- --- ----------------- ------------------- -------------------- 
254    eltwise_254 (Eltwise, MUL)                         [b:1,h:2,w:2,c:16]                               64                conv2d_252   |                                       Eltwise/mul_[251]    
                                                                                                                                 nl_253   | 
------ -------------------------------------------------- ----------------------- --------------- ----------- ------------------------- --- ----------------- ------------------- -------------------- 
255    eltwise_255 (Eltwise, ADD)                         [b:1,h:2,w:2,c:16]                               64               eltwise_248   |                                       Eltwise/add_[252]    
                                                                                                                            eltwise_254   | 
------ -------------------------------------------------- ----------------------- --------------- ----------- ------------------------- --- ----------------- ------------------- -------------------- 
256    conv2d_256 (Conv2D, CONV_2D)                       [b:1,h:2,w:2,c:16]      528/576               2,064               eltwise_231   |                                       Conv2D_[226]         
------ -------------------------------------------------- ----------------------- --------------- ----------- ------------------------- --- ----------------- ------------------- -------------------- 
257    nl_257 (Nonlinearity, LOGISTIC)                    [b:1,h:2,w:2,c:16]                              640                conv2d_256   |                   -576(-90.0%)        Nonlinearity_[227]   
------ -------------------------------------------------- ----------------------- --------------- ----------- ------------------------- --- ----------------- ------------------- -------------------- 
258    eltwise_258 (Eltwise, MUL)                         [b:1,h:2,w:2,c:16]                               64                conv2d_256   |                                       Eltwise/mul_[228]    
                                                                                                                                 nl_257   | 
------ -------------------------------------------------- ----------------------- --------------- ----------- ------------------------- --- ----------------- ------------------- -------------------- 
259    concat_259 (Concat, CONCATENATION)                 [b:1,h:2,w:2,c:32]                                                eltwise_255   |                                       Concat_[253]         
                                                                                                                            eltwise_258   | 
------ -------------------------------------------------- ----------------------- --------------- ----------- ------------------------- --- ----------------- ------------------- -------------------- 
260    conv2d_260 (Conv2D, CONV_2D)                       [b:1,h:2,w:2,c:32]      1,056/1,152           4,128                concat_259   |                                       Conv2D_[254]         
------ -------------------------------------------------- ----------------------- --------------- ----------- ------------------------- --- ----------------- ------------------- -------------------- 
261    nl_261 (Nonlinearity, LOGISTIC)                    [b:1,h:2,w:2,c:32]                            1,280                conv2d_260   |                   -1,152(-90.0%)      Nonlinearity_[255]   
------ -------------------------------------------------- ----------------------- --------------- ----------- ------------------------- --- ----------------- ------------------- -------------------- 
262    eltwise_262 (Eltwise, MUL)                         [b:1,h:2,w:2,c:32]                              128                conv2d_260   |                                       Eltwise/mul_[256]    
                                                                                                                                 nl_261   | 
------ -------------------------------------------------- ----------------------- --------------- ----------- ------------------------- --- ----------------- ------------------- -------------------- 
263    conv2d_263 (Conv2D, CONV_2D)                       [b:1,h:2,w:2,c:32]      9,248/9,344          36,896               eltwise_262   |                                       Conv2D_[257]         
------ -------------------------------------------------- ----------------------- --------------- ----------- ------------------------- --- ----------------- ------------------- -------------------- 
264    nl_264 (Nonlinearity, LOGISTIC)                    [b:1,h:2,w:2,c:32]                            1,280                conv2d_263   |                   -1,152(-90.0%)      Nonlinearity_[258]   
------ -------------------------------------------------- ----------------------- --------------- ----------- ------------------------- --- ----------------- ------------------- -------------------- 
265    eltwise_265 (Eltwise, MUL)                         [b:1,h:2,w:2,c:32]                              128                conv2d_263   |                                       Eltwise/mul_[259]    
                                                                                                                                 nl_264   | 
------ -------------------------------------------------- ----------------------- --------------- ----------- ------------------------- --- ----------------- ------------------- -------------------- 
266    concat_266 (Concat, CONCATENATION)                 [b:1,h:2,w:2,c:128]                                                 slice_196   |                                       Concat_[261]         
                                                                                                                              slice_197   | 
                                                                                                                            eltwise_231   | 
                                                                                                                            eltwise_265   | 
------ -------------------------------------------------- ----------------------- --------------- ----------- ------------------------- --- ----------------- ------------------- -------------------- 
267    conv2d_267 (Conv2D, CONV_2D)                       [b:1,h:2,w:2,c:16]      2,064/2,112           8,208                concat_266   |                                       Conv2D_[262]         
------ -------------------------------------------------- ----------------------- --------------- ----------- ------------------------- --- ----------------- ------------------- -------------------- 
268    nl_268 (Nonlinearity, LOGISTIC)                    [b:1,h:2,w:2,c:16]                              640                conv2d_267   |                   -576(-90.0%)        Nonlinearity_[263]   
------ -------------------------------------------------- ----------------------- --------------- ----------- ------------------------- --- ----------------- ------------------- -------------------- 
269    eltwise_269 (Eltwise, MUL)                         [b:1,h:2,w:2,c:16]                               64                conv2d_267   |                                       Eltwise/mul_[264]    
                                                                                                                                 nl_268   | 
------ -------------------------------------------------- ----------------------- --------------- ----------- ------------------------- --- ----------------- ------------------- -------------------- 
270    conv2d_270 (Conv2D, CONV_2D)                       [b:1,h:2,w:2,c:32]      544/640               2,080               eltwise_269   |                                       Conv2D_[265]         
------ -------------------------------------------------- ----------------------- --------------- ----------- ------------------------- --- ----------------- ------------------- -------------------- 
271    nl_271 (Nonlinearity, LOGISTIC)                    [b:1,h:2,w:2,c:32]                            1,280                conv2d_270   |                   -1,152(-90.0%)      Nonlinearity_[266]   
------ -------------------------------------------------- ----------------------- --------------- ----------- ------------------------- --- ----------------- ------------------- -------------------- 
272    eltwise_272 (Eltwise, MUL)                         [b:1,h:2,w:2,c:32]                              128                conv2d_270   |                                       Eltwise/mul_[267]    
                                                                                                                                 nl_271   | 
------ -------------------------------------------------- ----------------------- --------------- ----------- ------------------------- --- ----------------- ------------------- -------------------- 
273    pool_273 (Pool, MAX_POOL_2D)                       [b:1,h:2,w:2,c:32]                            3,200               eltwise_272   |                                       Pool_[268]           
------ -------------------------------------------------- ----------------------- --------------- ----------- ------------------------- --- ----------------- ------------------- -------------------- 
274    pool_274 (Pool, MAX_POOL_2D)                       [b:1,h:2,w:2,c:32]                            3,200                  pool_273   |                                       Pool_[269]           
------ -------------------------------------------------- ----------------------- --------------- ----------- ------------------------- --- ----------------- ------------------- -------------------- 
275    pool_275 (Pool, MAX_POOL_2D)                       [b:1,h:2,w:2,c:32]                            3,200                  pool_274   |                                       Pool_[270]           
------ -------------------------------------------------- ----------------------- --------------- ----------- ------------------------- --- ----------------- ------------------- -------------------- 
276    concat_276 (Concat, CONCATENATION)                 [b:1,h:2,w:2,c:128]                                               eltwise_272   |                                       Concat_[271]         
                                                                                                                               pool_273   | 
                                                                                                                               pool_274   | 
                                                                                                                               pool_275   | 
------ -------------------------------------------------- ----------------------- --------------- ----------- ------------------------- --- ----------------- ------------------- -------------------- 
277    conv2d_277 (Conv2D, CONV_2D)                       [b:1,h:2,w:2,c:16]      2,064/2,112           8,208                concat_276   |                                       Conv2D_[272]         
------ -------------------------------------------------- ----------------------- --------------- ----------- ------------------------- --- ----------------- ------------------- -------------------- 
278    nl_278 (Nonlinearity, LOGISTIC)                    [b:1,h:2,w:2,c:16]                              640                conv2d_277   |                   -576(-90.0%)        Nonlinearity_[273]   
------ -------------------------------------------------- ----------------------- --------------- ----------- ------------------------- --- ----------------- ------------------- -------------------- 
279    eltwise_279 (Eltwise, MUL)                         [b:1,h:2,w:2,c:16]                               64                conv2d_277   |                                       Eltwise/mul_[274]    
                                                                                                                                 nl_278   | 
------ -------------------------------------------------- ----------------------- --------------- ----------- ------------------------- --- ----------------- ------------------- -------------------- 
280    conv2d_280 (Conv2D, DEPTHWISE_CONV_2D)             [b:1,h:2,w:2,c:16]      160/208                 592               eltwise_279   |                                       Conv2D_[484]         
------ -------------------------------------------------- ----------------------- --------------- ----------- ------------------------- --- ----------------- ------------------- -------------------- 
281    nl_281 (Nonlinearity, LOGISTIC)                    [b:1,h:2,w:2,c:16]                              640                conv2d_280   |                   -576(-90.0%)        Nonlinearity_[485]   
------ -------------------------------------------------- ----------------------- --------------- ----------- ------------------------- --- ----------------- ------------------- -------------------- 
282    eltwise_282 (Eltwise, MUL)                         [b:1,h:2,w:2,c:16]                               64                conv2d_280   |                                       Eltwise/mul_[486]    
                                                                                                                                 nl_281   | 
------ -------------------------------------------------- ----------------------- --------------- ----------- ------------------------- --- ----------------- ------------------- -------------------- 
283    conv2d_283 (Conv2D, CONV_2D)                       [b:1,h:2,w:2,c:8]       136/160                 520               eltwise_282   |                                       Conv2D_[487]         
------ -------------------------------------------------- ----------------------- --------------- ----------- ------------------------- --- ----------------- ------------------- -------------------- 
284    nl_284 (Nonlinearity, LOGISTIC)                    [b:1,h:2,w:2,c:8]                               320                conv2d_283   |                   -288(-90.0%)        Nonlinearity_[488]   
------ -------------------------------------------------- ----------------------- --------------- ----------- ------------------------- --- ----------------- ------------------- -------------------- 
285    eltwise_285 (Eltwise, MUL)                         [b:1,h:2,w:2,c:8]                                32                conv2d_283   |                                       Eltwise/mul_[489]    
                                                                                                                                 nl_284   | 
------ -------------------------------------------------- ----------------------- --------------- ----------- ------------------------- --- ----------------- ------------------- -------------------- 
286    conv2d_286 (Conv2D, DEPTHWISE_CONV_2D)             [b:1,h:2,w:2,c:8]       80/104                  296               eltwise_285   |                                       Conv2D_[490]         
------ -------------------------------------------------- ----------------------- --------------- ----------- ------------------------- --- ----------------- ------------------- -------------------- 
287    nl_287 (Nonlinearity, LOGISTIC)                    [b:1,h:2,w:2,c:8]                               320                conv2d_286   |                   -288(-90.0%)        Nonlinearity_[491]   
------ -------------------------------------------------- ----------------------- --------------- ----------- ------------------------- --- ----------------- ------------------- -------------------- 
288    eltwise_288 (Eltwise, MUL)                         [b:1,h:2,w:2,c:8]                                32                conv2d_286   |                                       Eltwise/mul_[492]    
                                                                                                                                 nl_287   | 
------ -------------------------------------------------- ----------------------- --------------- ----------- ------------------------- --- ----------------- ------------------- -------------------- 
289    conv2d_289 (Conv2D, CONV_2D)                       [b:1,h:2,w:2,c:8]       72/96                   264               eltwise_288   |                                       Conv2D_[493]         
------ -------------------------------------------------- ----------------------- --------------- ----------- ------------------------- --- ----------------- ------------------- -------------------- 
290    nl_290 (Nonlinearity, LOGISTIC)                    [b:1,h:2,w:2,c:8]                               320                conv2d_289   |                   -288(-90.0%)        Nonlinearity_[494]   
------ -------------------------------------------------- ----------------------- --------------- ----------- ------------------------- --- ----------------- ------------------- -------------------- 
291    eltwise_291 (Eltwise, MUL)                         [b:1,h:2,w:2,c:8]                                32                conv2d_289   |                                       Eltwise/mul_[495]    
                                                                                                                                 nl_290   | 
------ -------------------------------------------------- ----------------------- --------------- ----------- ------------------------- --- ----------------- ------------------- -------------------- 
292    conv2d_292 (Conv2D, CONV_2D)                       [b:1,h:2,w:2,c:2]       18/24                    66               eltwise_291   |                                       Conv2D_[496]         
------ -------------------------------------------------- ----------------------- --------------- ----------- ------------------------- --- ----------------- ------------------- -------------------- 
293    upsample_293 (Upsample, RESIZE_NEAREST_NEIGHBOR)   [b:1,h:4,w:4,c:16]                                                eltwise_279   |                                       Upsample_[282]       
------ -------------------------------------------------- ----------------------- --------------- ----------- ------------------------- --- ----------------- ------------------- -------------------- 
294    conv2d_294 (Conv2D, CONV_2D)                       [b:1,h:2,w:2,c:64]      9,280/9,472          36,928               eltwise_279   |                                       Conv2D_[275]         
------ -------------------------------------------------- ----------------------- --------------- ----------- ------------------------- --- ----------------- ------------------- -------------------- 
295    nl_295 (Nonlinearity, LOGISTIC)                    [b:1,h:2,w:2,c:64]                            2,560                conv2d_294   |                   -2,304(-90.0%)      Nonlinearity_[276]   
------ -------------------------------------------------- ----------------------- --------------- ----------- ------------------------- --- ----------------- ------------------- -------------------- 
296    eltwise_296 (Eltwise, MUL)                         [b:1,h:2,w:2,c:64]                              256                conv2d_294   |                                       Eltwise/mul_[277]    
                                                                                                                                 nl_295   | 
------ -------------------------------------------------- ----------------------- --------------- ----------- ------------------------- --- ----------------- ------------------- -------------------- 
297    conv2d_297 (Conv2D, CONV_2D)                       [b:1,h:2,w:2,c:64]      36,928/37,120       147,520               eltwise_296   |                                       Conv2D_[278]         
------ -------------------------------------------------- ----------------------- --------------- ----------- ------------------------- --- ----------------- ------------------- -------------------- 
298    nl_298 (Nonlinearity, LOGISTIC)                    [b:1,h:2,w:2,c:64]                            2,560                conv2d_297   |                   -2,304(-90.0%)      Nonlinearity_[279]   
------ -------------------------------------------------- ----------------------- --------------- ----------- ------------------------- --- ----------------- ------------------- -------------------- 
299    eltwise_299 (Eltwise, MUL)                         [b:1,h:2,w:2,c:64]                              256                conv2d_297   |                                       Eltwise/mul_[280]    
                                                                                                                                 nl_298   | 
------ -------------------------------------------------- ----------------------- --------------- ----------- ------------------------- --- ----------------- ------------------- -------------------- 
300    conv2d_300 (Conv2D, CONV_2D)                       [b:1,h:2,w:2,c:64]      4,160/4,352          16,448               eltwise_299   |                                       Conv2D_[281]         
------ -------------------------------------------------- ----------------------- --------------- ----------- ------------------------- --- ----------------- ------------------- -------------------- 
301    concat_301 (Concat, CONCATENATION)                 [b:1,h:2,w:2,c:66]                                                 conv2d_300   |                                       Concat_[497]         
                                                                                                                             conv2d_292   | 
------ -------------------------------------------------- ----------------------- --------------- ----------- ------------------------- --- ----------------- ------------------- -------------------- 
302    transpose_302 (Transpose, TRANSPOSE)               [b:1,h:66,w:2,c:2]                              132                concat_301   |                                       Transpose_[498]      
------ -------------------------------------------------- ----------------------- --------------- ----------- ------------------------- --- ----------------- ------------------- -------------------- 
303    reshape_303 (Reshape, RESHAPE)                     [b:1,h:66,c:4]                                                  transpose_302   |                                       
------ -------------------------------------------------- ----------------------- --------------- ----------- ------------------------- --- ----------------- ------------------- -------------------- 
304    concat_304 (Concat, CONCATENATION)                 [b:1,h:4,w:4,c:32]                                               upsample_293   |                                       Concat_[283]         
                                                                                                                            eltwise_187   | 
------ -------------------------------------------------- ----------------------- --------------- ----------- ------------------------- --- ----------------- ------------------- -------------------- 
305    conv2d_305 (Conv2D, CONV_2D)                       [b:1,h:4,w:4,c:48]      1,584/1,728          24,624                concat_304   |                                       Conv2D_[284]         
------ -------------------------------------------------- ----------------------- --------------- ----------- ------------------------- --- ----------------- ------------------- -------------------- 
306    nl_306 (Nonlinearity, LOGISTIC)                    [b:1,h:4,w:4,c:48]                            7,680                conv2d_305   |                   -6,912(-90.0%)      Nonlinearity_[285]   
------ -------------------------------------------------- ----------------------- --------------- ----------- ------------------------- --- ----------------- ------------------- -------------------- 
307    eltwise_307 (Eltwise, MUL)                         [b:1,h:4,w:4,c:48]                              768                conv2d_305   |                                       Eltwise/mul_[286]    
                                                                                                                                 nl_306   | 
------ -------------------------------------------------- ----------------------- --------------- ----------- ------------------------- --- ----------------- ------------------- -------------------- 
308    slice_308 (Slice, STRIDED_SLICE)                   [b:1,h:4,w:4,c:24]                                                eltwise_307   |                                       Slice_[356]          
------ -------------------------------------------------- ----------------------- --------------- ----------- ------------------------- --- ----------------- ------------------- -------------------- 
309    slice_309 (Slice, STRIDED_SLICE)                   [b:1,h:4,w:4,c:24]                                                eltwise_307   |                                       Slice_[287]          
------ -------------------------------------------------- ----------------------- --------------- ----------- ------------------------- --- ----------------- ------------------- -------------------- 
310    conv2d_310 (Conv2D, CONV_2D)                       [b:1,h:4,w:4,c:12]      300/336               4,620                 slice_309   |                                       Conv2D_[291]         
------ -------------------------------------------------- ----------------------- --------------- ----------- ------------------------- --- ----------------- ------------------- -------------------- 
311    nl_311 (Nonlinearity, LOGISTIC)                    [b:1,h:4,w:4,c:12]                            1,920                conv2d_310   |                   -1,728(-90.0%)      Nonlinearity_[292]   
------ -------------------------------------------------- ----------------------- --------------- ----------- ------------------------- --- ----------------- ------------------- -------------------- 
312    eltwise_312 (Eltwise, MUL)                         [b:1,h:4,w:4,c:12]                              192                conv2d_310   |                                       Eltwise/mul_[293]    
                                                                                                                                 nl_311   | 
------ -------------------------------------------------- ----------------------- --------------- ----------- ------------------------- --- ----------------- ------------------- -------------------- 
313    conv2d_313 (Conv2D, CONV_2D)                       [b:1,h:4,w:4,c:12]      1,308/1,344          20,748               eltwise_312   |                                       Conv2D_[294]         
------ -------------------------------------------------- ----------------------- --------------- ----------- ------------------------- --- ----------------- ------------------- -------------------- 
314    nl_314 (Nonlinearity, LOGISTIC)                    [b:1,h:4,w:4,c:12]                            1,920                conv2d_313   |                   -1,728(-90.0%)      Nonlinearity_[295]   
------ -------------------------------------------------- ----------------------- --------------- ----------- ------------------------- --- ----------------- ------------------- -------------------- 
315    eltwise_315 (Eltwise, MUL)                         [b:1,h:4,w:4,c:12]                              192                conv2d_313   |                                       Eltwise/mul_[296]    
                                                                                                                                 nl_314   | 
------ -------------------------------------------------- ----------------------- --------------- ----------- ------------------------- --- ----------------- ------------------- -------------------- 
316    conv2d_316 (Conv2D, CONV_2D)                       [b:1,h:4,w:4,c:12]      1,308/1,344          20,748               eltwise_315   |                                       Conv2D_[297]         
------ -------------------------------------------------- ----------------------- --------------- ----------- ------------------------- --- ----------------- ------------------- -------------------- 
317    nl_317 (Nonlinearity, LOGISTIC)                    [b:1,h:4,w:4,c:12]                            1,920                conv2d_316   |                   -1,728(-90.0%)      Nonlinearity_[298]   
------ -------------------------------------------------- ----------------------- --------------- ----------- ------------------------- --- ----------------- ------------------- -------------------- 
318    eltwise_318 (Eltwise, MUL)                         [b:1,h:4,w:4,c:12]                              192                conv2d_316   |                                       Eltwise/mul_[299]    
                                                                                                                                 nl_317   | 
------ -------------------------------------------------- ----------------------- --------------- ----------- ------------------------- --- ----------------- ------------------- -------------------- 
319    eltwise_319 (Eltwise, ADD)                         [b:1,h:4,w:4,c:12]                              192               eltwise_312   |                                       Eltwise/add_[300]    
…
511     522    eltwise_522 (Eltwise/sub)           168     op_s8_s8 
512     520    eltwise_520 (Eltwise/add)           168     op_s8_s8 
513     521    eltwise_521 (Eltwise/mul)           168     op_s8_s8 
514     526    concat_526 (Concat)                   0   smul_s8_s8 
------- ------ --------------------------- ----------- ------------ 
total                                        9,176,731 

Number of operation types
---------------- ----------- ----------- 
operation type             #           % 
---------------- ----------- ----------- 
smul_s8_s8         8,868,635       96.6% 
op_s8_s8             308,096        3.4% 

Complexity report (model)
------ ------------------------- ------------------------- ------------------------- ------- 
m_id   name                      c_macc                    c_rom                     c_id    
------ ------------------------- ------------------------- ------------------------- ------- 
0      serving_default_images0   ||||||             9.6%   |                  0.1%   [0]     
2      nl_2                      |                  0.4%   |                  0.0%   [1]     
3      eltwise_3                 |                  0.4%   |                  0.0%   [2]     
4      pad_4                     ||||               6.4%   |                  0.2%   [3]     
6      nl_6                      |                  0.1%   |                  0.0%   [4]     
7      eltwise_7                 |                  0.1%   |                  0.0%   [5]     
8      pool_8                    |                  0.1%   |                  0.0%   [6]     
9      conv2d_9                  |                  0.4%   |                  0.1%   [7]     
10     nl_10                     |                  0.0%   |                  0.0%   [8]     
11     eltwise_11                |                  0.0%   |                  0.0%   [9]     
12     slice_12                  |                  0.0%   |                  0.0%   [11]    
13     conv2d_13                 |                  1.6%   |                  0.2%   [12]    
14     nl_14                     |                  0.0%   |                  0.0%   [13]    
15     eltwise_15                |                  0.0%   |                  0.0%   [14]    
16     conv2d_16                 |                  1.6%   |                  0.2%   [15]    
17     nl_17                     |                  0.0%   |                  0.0%   [16]    
18     eltwise_18                |                  0.0%   |                  0.0%   [17]    
19     slice_19                  |                  0.0%   |                  0.0%   [10]    
20     concat_20                 |                  0.0%   |                  0.0%   [18]    
21     conv2d_21                 |                  0.7%   |                  0.1%   [19]    
22     nl_22                     |                  0.0%   |                  0.0%   [20]    
23     eltwise_23                |                  0.0%   |                  0.0%   [21]    
24     pool_24                   |                  0.1%   |                  0.0%   [22]    
25     pad_25                    |                  0.4%   |                  0.2%   [23]    
27     nl_27                     |                  0.0%   |                  0.0%   [24]    
28     eltwise_28                |                  0.0%   |                  0.0%   [25]    
29     conv2d_29                 |                  0.2%   |                  0.1%   [26]    
30     nl_30                     |                  0.0%   |                  0.0%   [27]    
31     eltwise_31                |                  0.0%   |                  0.0%   [28]    
32     slice_32                  |                  0.0%   |                  0.0%   [98]    
33     slice_33                  |                  0.0%   |                  0.0%   [29]    
34     conv2d_34                 |                  0.1%   |                  0.1%   [33]    
35     nl_35                     |                  0.0%   |                  0.0%   [34]    
36     eltwise_36                |                  0.0%   |                  0.0%   [35]    
37     conv2d_37                 |                  0.4%   |                  0.2%   [36]    
38     nl_38                     |                  0.0%   |                  0.0%   [37]    
39     eltwise_39                |                  0.0%   |                  0.0%   [38]    
40     conv2d_40                 |                  0.4%   |                  0.2%   [39]    
41     nl_41                     |                  0.0%   |                  0.0%   [40]    
42     eltwise_42                |                  0.0%   |                  0.0%   [41]    
43     eltwise_43                |                  0.0%   |                  0.0%   [42]    
44     conv2d_44                 |                  0.4%   |                  0.2%   [43]    
45     nl_45                     |                  0.0%   |                  0.0%   [44]    
46     eltwise_46                |                  0.0%   |                  0.0%   [45]    
47     conv2d_47                 |                  0.4%   |                  0.2%   [46]    
48     nl_48                     |                  0.0%   |                  0.0%   [47]    
49     eltwise_49                |                  0.0%   |                  0.0%   [48]    
50     eltwise_50                |                  0.0%   |                  0.0%   [49]    
51     conv2d_51                 |                  0.4%   |                  0.2%   [50]    
52     nl_52                     |                  0.0%   |                  0.0%   [51]    
53     eltwise_53                |                  0.0%   |                  0.0%   [52]    
54     conv2d_54                 |                  0.4%   |                  0.2%   [53]    
55     nl_55                     |                  0.0%   |                  0.0%   [54]    
56     eltwise_56                |                  0.0%   |                  0.0%   [55]    
57     eltwise_57                |                  0.0%   |                  0.0%   [56]    
58     conv2d_58                 |                  0.1%   |                  0.1%   [30]    
59     nl_59                     |                  0.0%   |                  0.0%   [31]    
60     eltwise_60                |                  0.0%   |                  0.0%   [32]    
61     concat_61                 |                  0.0%   |                  0.0%   [57]    
62     conv2d_62                 |                  0.2%   |                  0.1%   [58]    
63     nl_63                     |                  0.0%   |                  0.0%   [59]    
64     eltwise_64                |                  0.0%   |                  0.0%   [60]    
65     conv2d_65                 |                  1.6%   |                  0.8%   [61]    
66     nl_66                     |                  0.0%   |                  0.0%   [62]    
67     eltwise_67                |                  0.0%   |                  0.0%   [63]    
68     conv2d_68                 |                  0.1%   |                  0.1%   [67]    
69     nl_69                     |                  0.0%   |                  0.0%   [68]    
70     eltwise_70                |                  0.0%   |                  0.0%   [69]    
71     conv2d_71                 |                  0.4%   |                  0.2%   [70]    
72     nl_72                     |                  0.0%   |                  0.0%   [71]    
73     eltwise_73                |                  0.0%   |                  0.0%   [72]    
74     conv2d_74                 |                  0.4%   |                  0.2%   [73]    
75     nl_75                     |                  0.0%   |                  0.0%   [74]    
76     eltwise_76                |                  0.0%   |                  0.0%   [75]    
77     eltwise_77                |                  0.0%   |                  0.0%   [76]    
78     conv2d_78                 |                  0.4%   |                  0.2%   [77]    
79     nl_79                     |                  0.0%   |                  0.0%   [78]    
80     eltwise_80                |                  0.0%   |                  0.0%   [79]    
81     conv2d_81                 |                  0.4%   |                  0.2%   [80]    
82     nl_82                     |                  0.0%   |                  0.0%   [81]    
83     eltwise_83                |                  0.0%   |                  0.0%   [82]    
84     eltwise_84                |                  0.0%   |                  0.0%   [83]    
85     conv2d_85                 |                  0.4%   |                  0.2%   [84]    
86     nl_86                     |                  0.0%   |                  0.0%   [85]    
87     eltwise_87                |                  0.0%   |                  0.0%   [86]    
88     conv2d_88                 |                  0.4%   |                  0.2%   [87]    
89     nl_89                     |                  0.0%   |                  0.0%   [88]    
90     eltwise_90                |                  0.0%   |                  0.0%   [89]    
91     eltwise_91                |                  0.0%   |                  0.0%   [90]    
92     conv2d_92                 |                  0.1%   |                  0.1%   [64]    
93     nl_93                     |                  0.0%   |                  0.0%   [65]    
94     eltwise_94                |                  0.0%   |                  0.0%   [66]    
95     concat_95                 |                  0.0%   |                  0.0%   [91]    
96     conv2d_96                 |                  0.2%   |                  0.1%   [92]    
97     nl_97                     |                  0.0%   |                  0.0%   [93]    
98     eltwise_98                |                  0.0%   |                  0.0%   [94]    
99     conv2d_99                 |                  1.6%   |                  0.8%   [95]    
100    nl_100                    |                  0.0%   |                  0.0%   [96]    
101    eltwise_101               |                  0.0%   |                  0.0%   [97]    
102    concat_102                |                  0.0%   |                  0.0%   [99]    
103    conv2d_103                |                  0.4%   |                  0.2%   [100]   
104    nl_104                    |                  0.0%   |                  0.0%   [101]   
105    eltwise_105               |                  0.0%   |                  0.0%   [102]   
106    pool_106                  |                  0.0%   |                  0.0%   [103]   
107    pad_107                   |                  0.2%   |                  0.4%   [104]   
109    nl_109                    |                  0.0%   |                  0.0%   [105]   
110    eltwise_110               |                  0.0%   |                  0.0%   [106]   
111    conv2d_111                |                  0.1%   |                  0.3%   [107]   
112    nl_112                    |                  0.0%   |                  0.0%   [108]   
113    eltwise_113               |                  0.0%   |                  0.0%   [109]   
114    slice_114                 |                  0.0%   |                  0.0%   [179]   
115    slice_115                 |                  0.0%   |                  0.0%   [110]   
116    conv2d_116                |                  0.1%   |                  0.1%   [114]   
117    nl_117                    |                  0.0%   |                  0.0%   [115]   
118    eltwise_118               |                  0.0%   |                  0.0%   [116]   
119    conv2d_119                |                  0.2%   |                  0.4%   [117]   
120    nl_120                    |                  0.0%   |                  0.0%   [118]   
121    eltwise_121               |                  0.0%   |                  0.0%   [119]   
122    conv2d_122                |                  0.2%   |                  0.4%   [120]   
123    nl_123                    |                  0.0%   |                  0.0%   [121]   
124    eltwise_124               |                  0.0%   |                  0.0%   [122]   
125    eltwise_125               |                  0.0%   |                  0.0%   [123]   
126    conv2d_126                |                  0.2%   |                  0.4%   [124]   
127    nl_127                    |                  0.0%   |                  0.0%   [125]   
128    eltwise_128               |                  0.0%   |                  0.0%   [126]   
129    conv2d_129                |                  0.2%   |                  0.4%   [127]   
130    nl_130                    |                  0.0%   |                  0.0%   [128]   
131    eltwise_131               |                  0.0%   |                  0.0%   [129]   
132    eltwise_132               |                  0.0%   |                  0.0%   [130]   
133    conv2d_133                |                  0.2%   |                  0.4%   [131]   
134    nl_134                    |                  0.0%   |                  0.0%   [132]   
135    eltwise_135               |                  0.0%   |                  0.0%   [133]   
136    conv2d_136                |                  0.2%   |                  0.4%   [134]   
137    nl_137                    |                  0.0%   |                  0.0%   [135]   
138    eltwise_138               |                  0.0%   |                  0.0%   [136]   
139    eltwise_139               |                  0.0%   |                  0.0%   [137]   
140    conv2d_140                |                  0.1%   |                  0.1%   [111]   
141    nl_141                    |                  0.0%   |                  0.0%   [112]   
142    eltwise_142               |                  0.0%   |                  0.0%   [113]   
143    concat_143                |                  0.0%   |                  0.0%   [138]   
144    conv2d_144                |                  0.1%   |                  0.2%   [139]   
145    nl_145                    |                  0.0%   |                  0.0%   [140]   
146    eltwise_146               |                  0.0%   |                  0.0%   [141]   
147    conv2d_147                |                  0.9%   |||                1.7%   [142]   
148    nl_148                    |                  0.0%   |                  0.0%   [143]   
149    eltwise_149               |                  0.0%   |                  0.0%   [144]   
150    conv2d_150                |                  0.1%   |                  0.1%   [148]   
151    nl_151                    |                  0.0%   |                  0.0%   [149]   
152    eltwise_152               |                  0.0%   |                  0.0%   [150]   
153    conv2d_153                |                  0.2%   |                  0.4%   [151]   
154    nl_154                    |                  0.0%   |                  0.0%   [152]   
155    eltwise_155               |                  0.0%   |                  0.0%   [153]   
156    conv2d_156                |                  0.2%   |                  0.4%   [154]   
157    nl_157                    |                  0.0%   |                  0.0%   [155]   
158    eltwise_158               |                  0.0%   |                  0.0%   [156]   
159    eltwise_159               |                  0.0%   |                  0.0%   [157]   
160    conv2d_160                |                  0.2%   |                  0.4%   [158]   
161    nl_161                    |                  0.0%   |                  0.0%   [159]   
162    eltwise_162               |                  0.0%   |                  0.0%   [160]   
163    conv2d_163                |                  0.2%   |                  0.4%   [161]   
164    nl_164                    |                  0.0%   |                  0.0%   [162]   
165    eltwise_165               |                  0.0%   |                  0.0%   [163]   
166    eltwise_166               |                  0.0%   |                  0.0%   [164]   
167    conv2d_167                |                  0.2%   |                  0.4%   [165]   
168    nl_168                    |                  0.0%   |                  0.0%   [166]   
169    eltwise_169               |                  0.0%   |                  0.0%   [167]   
170    conv2d_170                |                  0.2%   |                  0.4%   [168]   
171    nl_171                    |                  0.0%   |                  0.0%   [169]   
172    eltwise_172               |                  0.0%   |                  0.0%   [170]   
173    eltwise_173               |                  0.0%   |                  0.0%   [171]   
174    conv2d_174                |                  0.1%   |                  0.1%   [145]   
175    nl_175                    |                  0.0%   |                  0.0%   [146]   
176    eltwise_176               |                  0.0%   |                  0.0%   [147]   
177    concat_177                |                  0.0%   |                  0.0%   [172]   
178    conv2d_178                |                  0.1%   |                  0.2%   [173]   
179    nl_179                    |                  0.0%   |                  0.0%   [174]   
180    eltwise_180               |                  0.0%   |                  0.0%   [175]   
181    conv2d_181                |                  0.9%   |||                1.7%   [176]   
182    nl_182                    |                  0.0%   |                  0.0%   [177]   
183    eltwise_183               |                  0.0%   |                  0.0%   [178]   
184    concat_184                |                  0.0%   |                  0.0%   [180]   
185    conv2d_185                |                  0.3%   |                  0.5%   [181]   
186    nl_186                    |                  0.0%   |                  0.0%   [182]   
187    eltwise_187               |                  0.0%   |                  0.0%   [183]   
188    pool_188                  |                  0.0%   |                  0.0%   [184]   
189    pad_189                   |                  0.1%   |                  0.8%   [185]   
191    nl_191                    |                  0.0%   |                  0.0%   [186]   
192    eltwise_192               |                  0.0%   |                  0.0%   [187]   
193    conv2d_193                |                  0.0%   |                  0.4%   [188]   
194    nl_194                    |                  0.0%   |                  0.0%   [189]   
195    eltwise_195               |                  0.0%   |                  0.0%   [190]   
196    slice_196                 |                  0.0%   |                  0.0%   [260]   
197    slice_197                 |                  0.0%   |                  0.0%   [191]   
198    conv2d_198                |                  0.0%   |                  0.2%   [195]   
199    nl_199                    |                  0.0%   |                  0.0%   [196]   
200    eltwise_200               |                  0.0%   |                  0.0%   [197]   
201    conv2d_201                |                  0.1%   |                  0.8%   [198]   
202    nl_202                    |                  0.0%   |                  0.0%   [199]   
203    eltwise_203               |                  0.0%   |                  0.0%   [200]   
204    conv2d_204                |                  0.1%   |                  0.8%   [201]   
205    nl_205                    |                  0.0%   |                  0.0%   [202]   
206    eltwise_206               |                  0.0%   |                  0.0%   [203]   
207    eltwise_207               |                  0.0%   |                  0.0%   [204]   
208    conv2d_208                |                  0.1%   |                  0.8%   [205]   
209    nl_209                    |                  0.0%   |                  0.0%   [206]   
210    eltwise_210               |                  0.0%   |                  0.0%   [207]   
211    conv2d_211                |                  0.1%   |                  0.8%   [208]   
212    nl_212                    |                  0.0%   |                  0.0%   [209]   
213    eltwise_213               |                  0.0%   |                  0.0%   [210]   
214    eltwise_214               |                  0.0%   |                  0.0%   [211]   
215    conv2d_215                |                  0.1%   |                  0.8%   [212]   
216    nl_216                    |                  0.0%   |                  0.0%   [213]   
217    eltwise_217               |                  0.0%   |                  0.0%   [214]   
218    conv2d_218                |                  0.1%   |                  0.8%   [215]   
219    nl_219                    |                  0.0%   |                  0.0%   [216]   
220    eltwise_220               |                  0.0%   |                  0.0%   [217]   
221    eltwise_221               |                  0.0%   |                  0.0%   [218]   
222    conv2d_222                |                  0.0%   |                  0.2%   [192]   
223    nl_223                    |                  0.0%   |                  0.0%   [193]   
224    eltwise_224               |                  0.0%   |                  0.0%   [194]   
225    concat_225                |                  0.0%   |                  0.0%   [219]   
226    conv2d_226                |                  0.0%   |                  0.4%   [220]   
227    nl_227                    |                  0.0%   |                  0.0%   [221]   
228    eltwise_228               |                  0.0%   |                  0.0%   [222]   
229    conv2d_229                |                  0.4%   ||||               3.0%   [223]   
230    nl_230                    |                  0.0%   |                  0.0%   [224]   
231    eltwise_231               |                  0.0%   |                  0.0%   [225]   
232    conv2d_232                |                  0.0%   |                  0.2%   [229]   
233    nl_233                    |                  0.0%   |                  0.0%   [230]   
234    eltwise_234               |                  0.0%   |                  0.0%   [231]   
235    conv2d_235                |                  0.1%   |                  0.8%   [232]   
236    nl_236                    |                  0.0%   |                  0.0%   [233]   
237    eltwise_237               |                  0.0%   |                  0.0%   [234]   
238    conv2d_238                |                  0.1%   |                  0.8%   [235]   
239    nl_239                    |                  0.0%   |                  0.0%   [236]   
240    eltwise_240               |                  0.0%   |                  0.0%   [237]   
241    eltwise_241               |                  0.0%   |                  0.0%   [238]   
242    conv2d_242                |                  0.1%   |                  0.8%   [239]   
243    nl_243                    |                  0.0%   |                  0.0%   [240]   
244    eltwise_244               |                  0.0%   |                  0.0%   [241]   
245    conv2d_245                |                  0.1%   |                  0.8%   [242]   
246    nl_246                    |                  0.0%   |                  0.0%   [243]   
247    eltwise_247               |                  0.0%   |                  0.0%   [244]   
248    eltwise_248               |                  0.0%   |                  0.0%   [245]   
249    conv2d_249                |                  0.1%   |                  0.8%   [246]   
250    nl_250                    |                  0.0%   |                  0.0%   [247]   
251    eltwise_251               |                  0.0%   |                  0.0%   [248]   
252    conv2d_252                |                  0.1%   |                  0.8%   [249]   
253    nl_253                    |                  0.0%   |                  0.0%   [250]   
254    eltwise_254               |                  0.0%   |                  0.0%   [251]   
255    eltwise_255               |                  0.0%   |                  0.0%   [252]   
256    conv2d_256                |                  0.0%   |                  0.2%   [226]   
257    nl_257                    |                  0.0%   |                  0.0%   [227]   
258    eltwise_258               |                  0.0%   |                  0.0%   [228]   
259    concat_259                |                  0.0%   |                  0.0%   [253]   
260    conv2d_260                |                  0.0%   |                  0.4%   [254]   
261    nl_261                    |                  0.0%   |                  0.0%   [255]   
262    eltwise_262               |                  0.0%   |                  0.0%   [256]   
263    conv2d_263                |                  0.4%   ||||               3.0%   [257]   
264    nl_264                    |                  0.0%   |                  0.0%   [258]   
265    eltwise_265               |                  0.0%   |                  0.0%   [259]   
266    concat_266                |                  0.0%   |                  0.0%   [261]   
267    conv2d_267                |                  0.1%   |                  0.7%   [262]   
268    nl_268                    |                  0.0%   |                  0.0%   [263]   
269    eltwise_269               |                  0.0%   |                  0.0%   [264]   
270    conv2d_270                |                  0.0%   |                  0.2%   [265]   
271    nl_271                    |                  0.0%   |                  0.0%   [266]   
272    eltwise_272               |                  0.0%   |                  0.0%   [267]   
273    pool_273                  |                  0.0%   |                  0.0%   [268]   
274    pool_274                  |                  0.0%   |                  0.0%   [269]   
275    pool_275                  |                  0.0%   |                  0.0%   [270]   
276    concat_276                |                  0.0%   |                  0.0%   [271]   
277    conv2d_277                |                  0.1%   |                  0.7%   [272]   
278    nl_278                    |                  0.0%   |                  0.0%   [273]   
279    eltwise_279               |                  0.0%   |                  0.0%   [274]   
280    conv2d_280                |                  0.0%   |                  0.1%   [484]   
281    nl_281                    |                  0.0%   |                  0.0%   [485]   
282    eltwise_282               |                  0.0%   |                  0.0%   [486]   
283    conv2d_283                |                  0.0%   |                  0.1%   [487]   
284    nl_284                    |                  0.0%   |                  0.0%   [488]   
285    eltwise_285               |                  0.0%   |                  0.0%   [489]   
286    conv2d_286                |                  0.0%   |                  0.0%   [490]   
287    nl_287                    |                  0.0%   |                  0.0%   [491]   
288    eltwise_288               |                  0.0%   |                  0.0%   [492]   
289    conv2d_289                |                  0.0%   |                  0.0%   [493]   
290    nl_290                    |                  0.0%   |                  0.0%   [494]   
291    eltwise_291               |                  0.0%   |                  0.0%   [495]   
292    conv2d_292                |                  0.0%   |                  0.0%   [496]   
293    upsample_293              |                  0.0%   |                  0.0%   [282]   
294    conv2d_294                |                  0.4%   ||||               3.1%   [275]   
295    nl_295                    |                  0.0%   |                  0.0%   [276]   
296    eltwise_296               |                  0.0%   |                  0.0%   [277]   
297    conv2d_297                |                  1.6%   ||||||||||||||||  12.0%   [278]   
298    nl_298                    |                  0.0%   |                  0.0%   [279]   
299    eltwise_299               |                  0.0%   |                  0.0%   [280]   
300    conv2d_300                |                  0.2%   ||                 1.4%   [281]   
301    concat_301                |                  0.0%   |                  0.0%   [497]   
302    transpose_302             |                  0.0%   |                  0.0%   [498]   
304    concat_304                |                  0.0%   |                  0.0%   [283]   
305    conv2d_305                |                  0.3%   |                  0.6%   [284]   
306    nl_306                    |                  0.0%   |                  0.0%   [285]   
307    eltwise_307               |                  0.0%   |                  0.0%   [286]   
308    slice_308                 |                  0.0%   |                  0.0%   [356]   
309    slice_309                 |                  0.0%   |                  0.0%   [287]   
310    conv2d_310                |                  0.1%   |                  0.1%   [291]   
311    nl_311                    |                  0.0%   |                  0.0%   [292]   
312    eltwise_312               |                  0.0%   |                  0.0%   [293]   
313    conv2d_313                |                  0.2%   |                  0.4%   [294]   
314    nl_314                    |                  0.0%   |                  0.0%   [295]   
315    eltwise_315               |                  0.0%   |                  0.0%   [296]   
316    conv2d_316                |                  0.2%   |                  0.4%   [297]   
317    nl_317                    |                  0.0%   |                  0.0%   [298]   
318    eltwise_318               |                  0.0%   |                  0.0%   [299]   
319    eltwise_319               |                  0.0%   |                  0.0%   [300]   
320    conv2d_320                |                  0.2%   |                  0.4%   [301]   
321    nl_321                    |                  0.0%   |                  0.0%   [302]   
322    eltwise_322               |                  0.0%   |                  0.0%   [303]   
323    conv2d_323                |                  0.2%   |                  0.4%   [304]   
324    nl_324                    |                  0.0%   |                  0.0%   [305]   
325    eltwise_325               |                  0.0%   |                  0.0%   [306]   
326    eltwise_326               |                  0.0%   |                  0.0%   [307]   
327    conv2d_327                |                  0.2%   |                  0.4%   [308]   
328    nl_328                    |                  0.0%   |                  0.0%   [309]   
329    eltwise_329               |                  0.0%   |                  0.0%   [310]   
330    conv2d_330                |                  0.2%   |                  0.4%   [311]   
331    nl_331                    |                  0.0%   |                  0.0%   [312]   
332    eltwise_332               |                  0.0%   |                  0.0%   [313]   
333    eltwise_333               |                  0.0%   |                  0.0%   [314]   
334    conv2d_334                |                  0.1%   |                  0.1%   [288]   
335    nl_335                    |                  0.0%   |                  0.0%   [289]   
336    eltwise_336               |                  0.0%   |                  0.0%   [290]   
337    concat_337                |                  0.0%   |                  0.0%   [315]   
338    conv2d_338                |                  0.1%   |                  0.2%   [316]   
339    nl_339                    |                  0.0%   |                  0.0%   [317]   
340    eltwise_340               |                  0.0%   |                  0.0%   [318]   
341    conv2d_341                |                  0.9%   |||                1.7%   [319]   
342    nl_342                    |                  0.0%   |                  0.0%   [320]   
343    eltwise_343               |                  0.0%   |                  0.0%   [321]   
344    conv2d_344                |                  0.1%   |                  0.1%   [325]   
345    nl_345                    |                  0.0%   |                  0.0%   [326]   
346    eltwise_346               |                  0.0%   |                  0.0%   [327]   
347    conv2d_347                |                  0.2%   |                  0.4%   [328]   
348    nl_348                    |                  0.0%   |                  0.0%   [329]   
349    eltwise_349               |                  0.0%   |                  0.0%   [330]   
350    conv2d_350                |                  0.2%   |                  0.4%   [331]   
351    nl_351                    |                  0.0%   |                  0.0%   [332]   
352    eltwise_352               |                  0.0%   |                  0.0%   [333]   
353    eltwise_353               |                  0.0%   |                  0.0%   [334]   
354    conv2d_354                |                  0.2%   |                  0.4%   [335]   
355    nl_355                    |                  0.0%   |                  0.0%   [336]   
356    eltwise_356               |                  0.0%   |                  0.0%   [337]   
357    conv2d_357                |                  0.2%   |                  0.4%   [338]   
358    nl_358                    |                  0.0%   |                  0.0%   [339]   
359    eltwise_359               |                  0.0%   |                  0.0%   [340]   
360    eltwise_360               |                  0.0%   |                  0.0%   [341]   
361    conv2d_361                |                  0.2%   |                  0.4%   [342]   
362    nl_362                    |                  0.0%   |                  0.0%   [343]   
363    eltwise_363               |                  0.0%   |                  0.0%   [344]   
364    conv2d_364                |                  0.2%   |                  0.4%   [345]   
365    nl_365                    |                  0.0%   |                  0.0%   [346]   
366    eltwise_366               |                  0.0%   |                  0.0%   [347]   
367    eltwise_367               |                  0.0%   |                  0.0%   [348]   
368    conv2d_368                |                  0.1%   |                  0.1%   [322]   
369    nl_369                    |                  0.0%   |                  0.0%   [323]   
370    eltwise_370               |                  0.0%   |                  0.0%   [324]   
371    concat_371                |                  0.0%   |                  0.0%   [349]   
372    conv2d_372                |                  0.1%   |                  0.2%   [350]   
373    nl_373                    |                  0.0%   |                  0.0%   [351]   
374    eltwise_374               |                  0.0%   |                  0.0%   [352]   
375    conv2d_375                |                  0.9%   |||                1.7%   [353]   
376    nl_376                    |                  0.0%   |                  0.0%   [354]   
377    eltwise_377               |                  0.0%   |                  0.0%   [355]   
378    concat_378                |                  0.0%   |                  0.0%   [357]   
379    conv2d_379                |                  0.3%   |                  0.5%   [358]   
380    nl_380                    |                  0.0%   |                  0.0%   [359]   
381    eltwise_381               |                  0.0%   |                  0.0%   [360]   
382    conv2d_382                |                  0.0%   |                  0.1%   [469]   
383    nl_383                    |                  0.0%   |                  0.0%   [470]   
384    eltwise_384               |                  0.0%   |                  0.0%   [471]   
385    conv2d_385                |                  0.0%   |                  0.1%   [472]   
386    nl_386                    |                  0.0%   |                  0.0%   [473]   
387    eltwise_387               |                  0.0%   |                  0.0%   [474]   
388    conv2d_388                |                  0.0%   |                  0.0%   [475]   
389    nl_389                    |                  0.0%   |                  0.0%   [476]   
390    eltwise_390               |                  0.0%   |                  0.0%   [477]   
391    conv2d_391                |                  0.0%   |                  0.0%   [478]   
392    nl_392                    |                  0.0%   |                  0.0%   [479]   
393    eltwise_393               |                  0.0%   |                  0.0%   [480]   
394    conv2d_394                |                  0.0%   |                  0.0%   [481]   
395    upsample_395              |                  0.0%   |                  0.0%   [368]   
396    conv2d_396                |                  1.6%   ||||               3.1%   [361]   
397    nl_397                    |                  0.0%   |                  0.0%   [362]   
398    eltwise_398               |                  0.0%   |                  0.0%   [363]   
399    conv2d_399                ||||               6.4%   ||||||||||||||||  12.0%   [364]   
400    nl_400                    |                  0.0%   |                  0.0%   [365]   
401    eltwise_401               |                  0.0%   |                  0.0%   [366]   
402    conv2d_402                |                  0.7%   ||                 1.4%   [367]   
403    concat_403                |                  0.0%   |                  0.0%   [482]   
404    transpose_404             |                  0.0%   |                  0.0%   [483]   
406    concat_406                |                  0.0%   |                  0.0%   [369]   
407    conv2d_407                |                  0.5%   |                  0.3%   [370]   
408    nl_408                    |                  0.0%   |                  0.0%   [371]   
409    eltwise_409               |                  0.0%   |                  0.0%   [372]   
410    slice_410                 |                  0.0%   |                  0.0%   [442]   
411    slice_411                 |                  0.0%   |                  0.0%   [373]   
412    conv2d_412                |                  0.1%   |                  0.1%   [377]   
413    nl_413                    |                  0.0%   |                  0.0%   [378]   
414    eltwise_414               |                  0.0%   |                  0.0%   [379]   
415    conv2d_415                |                  0.4%   |                  0.2%   [380]   
416    nl_416                    |                  0.0%   |                  0.0%   [381]   
417    eltwise_417               |                  0.0%   |                  0.0%   [382]   
418    conv2d_418                |                  0.4%   |                  0.2%   [383]   
419    nl_419                    |                  0.0%   |                  0.0%   [384]   
420    eltwise_420               |                  0.0%   |                  0.0%   [385]   
421    eltwise_421               |                  0.0%   |                  0.0%   [386]   
422    conv2d_422                |                  0.4%   |                  0.2%   [387]   
423    nl_423                    |                  0.0%   |                  0.0%   [388]   
424    eltwise_424               |                  0.0%   |                  0.0%   [389]   
425    conv2d_425                |                  0.4%   |                  0.2%   [390]   
426    nl_426                    |                  0.0%   |                  0.0%   [391]   
427    eltwise_427               |                  0.0%   |                  0.0%   [392]   
428    eltwise_428               |                  0.0%   |                  0.0%   [393]   
429    conv2d_429                |                  0.4%   |                  0.2%   [394]   
430    nl_430                    |                  0.0%   |                  0.0%   [395]   
431    eltwise_431               |                  0.0%   |                  0.0%   [396]   
432    conv2d_432                |                  0.4%   |                  0.2%   [397]   
433    nl_433                    |                  0.0%   |                  0.0%   [398]   
434    eltwise_434               |                  0.0%   |                  0.0%   [399]   
435    eltwise_435               |                  0.0%   |                  0.0%   [400]   
436    conv2d_436                |                  0.1%   |                  0.1%   [374]   
437    nl_437                    |                  0.0%   |                  0.0%   [375]   
438    eltwise_438               |                  0.0%   |                  0.0%   [376]   
439    concat_439                |                  0.0%   |                  0.0%   [401]   
440    conv2d_440                |                  0.2%   |                  0.1%   [402]   
441    nl_441                    |                  0.0%   |                  0.0%   [403]   
442    eltwise_442               |                  0.0%   |                  0.0%   [404]   
443    conv2d_443                |                  1.6%   |                  0.8%   [405]   
444    nl_444                    |                  0.0%   |                  0.0%   [406]   
445    eltwise_445               |                  0.0%   |                  0.0%   [407]   
446    conv2d_446                |                  0.1%   |                  0.1%   [411]   
447    nl_447                    |                  0.0%   |                  0.0%   [412]   
448    eltwise_448               |                  0.0%   |                  0.0%   [413]   
449    conv2d_449                |                  0.4%   |                  0.2%   [414]   
450    nl_450                    |                  0.0%   |                  0.0%   [415]   
451    eltwise_451               |                  0.0%   |                  0.0%   [416]   
452    conv2d_452                |                  0.4%   |                  0.2%   [417]   
453    nl_453                    |                  0.0%   |                  0.0%   [418]   
454    eltwise_454               |                  0.0%   |                  0.0%   [419]   
455    eltwise_455               |                  0.0%   |                  0.0%   [420]   
456    conv2d_456                |                  0.4%   |                  0.2%   [421]   
457    nl_457                    |                  0.0%   |                  0.0%   [422]   
458    eltwise_458               |                  0.0%   |                  0.0%   [423]   
459    conv2d_459                |                  0.4%   |                  0.2%   [424]   
460    nl_460                    |                  0.0%   |                  0.0%   [425]   
461    eltwise_461               |                  0.0%   |                  0.0%   [426]   
462    eltwise_462               |                  0.0%   |                  0.0%   [427]   
463    conv2d_463                |                  0.4%   |                  0.2%   [428]   
464    nl_464                    |                  0.0%   |                  0.0%   [429]   
465    eltwise_465               |                  0.0%   |                  0.0%   [430]   
466    conv2d_466                |                  0.4%   |                  0.2%   [431]   
467    nl_467                    |                  0.0%   |                  0.0%   [432]   
468    eltwise_468               |                  0.0%   |                  0.0%   [433]   
469    eltwise_469               |                  0.0%   |                  0.0%   [434]   
470    conv2d_470                |                  0.1%   |                  0.1%   [408]   
471    nl_471                    |                  0.0%   |                  0.0%   [409]   
472    eltwise_472               |                  0.0%   |                  0.0%   [410]   
473    concat_473                |                  0.0%   |                  0.0%   [435]   
474    conv2d_474                |                  0.2%   |                  0.1%   [436]   
475    nl_475                    |                  0.0%   |                  0.0%   [437]   
476    eltwise_476               |                  0.0%   |                  0.0%   [438]   
477    conv2d_477                |                  1.6%   |                  0.8%   [439]   
478    nl_478                    |                  0.0%   |                  0.0%   [440]   
479    eltwise_479               |                  0.0%   |                  0.0%   [441]   
480    concat_480                |                  0.0%   |                  0.0%   [443]   
481    conv2d_481                |                  0.4%   |                  0.2%   [444]   
482    nl_482                    |                  0.0%   |                  0.0%   [445]   
483    eltwise_483               |                  0.0%   |                  0.0%   [446]   
484    conv2d_484                ||                 3.2%   ||                 1.6%   [460]   
485    nl_485                    |                  0.0%   |                  0.0%   [461]   
486    eltwise_486               |                  0.0%   |                  0.0%   [462]   
487    conv2d_487                ||||||||||||||||  25.7%   ||||||||||||||||  12.0%   [463]   
488    nl_488                    |                  0.0%   |                  0.0%   [464]   
489    eltwise_489               |                  0.0%   |                  0.0%   [465]   
490    conv2d_490                ||                 2.9%   ||                 1.4%   [466]   
491    conv2d_491                |                  0.1%   |                  0.0%   [447]   
492    nl_492                    |                  0.0%   |                  0.0%   [448]   
493    eltwise_493               |                  0.0%   |                  0.0%   [449]   
494    conv2d_494                |                  0.0%   |                  0.0%   [450]   
495    nl_495                    |                  0.0%   |                  0.0%   [451]   
496    eltwise_496               |                  0.0%   |                  0.0%   [452]   
497    conv2d_497                |                  0.1%   |                  0.0%   [453]   
498    nl_498                    |                  0.0%   |                  0.0%   [454]   
499    eltwise_499               |                  0.0%   |                  0.0%   [455]   
500    conv2d_500                |                  0.0%   |                  0.0%   [456]   
501    nl_501                    |                  0.0%   |                  0.0%   [457]   
502    eltwise_502               |                  0.0%   |                  0.0%   [458]   
503    conv2d_503                |                  0.0%   |                  0.0%   [459]   
504    concat_504                |                  0.0%   |                  0.0%   [467]   
505    transpose_505             |                  0.0%   |                  0.0%   [468]   
507    concat_507                |                  0.0%   |                  0.0%   [499]   
508    slice_508                 |                  0.0%   |                  0.0%   [502]   
510    transpose_510             |                  0.0%   |                  0.0%   [503]   
511    nl_511                    |                  0.9%   |                  0.0%   [504]   
512    conv2d_512                |                  0.1%   |                  0.0%   [505]   
514    tfl_pseudo_qconst2        |                  0.0%   |                  0.0%   [506]   
516    slice_516                 |                  0.0%   |                  0.0%   [509]   
517    tfl_pseudo_qconst1        |                  0.0%   |                  0.0%   [510]   
518    slice_518                 |                  0.0%   |                  0.0%   [507]   
519    eltwise_519               |                  0.0%   |                  0.0%   [508]   
520    eltwise_520               |                  0.0%   |                  0.0%   [512]   
521    tfl_pseudo_qconst         |                  0.0%   |                  0.0%   [513]   
522    eltwise_522               |                  0.0%   |                  0.0%   [511]   
523    slice_523                 |                  0.0%   |                  0.0%   [500]   
524    nl_524                    |                  0.0%   |                  0.0%   [501]   
526    concat_526                |                  0.0%   |                  0.0%   [514]   
------ ------------------------- ------------------------- ------------------------- ------- 
macc=9,176,731 weights=308,592 act=65,536 ram_io=0

Generated files (7)
------------------------------------------------------------------ 
C:\Users\jirap\.stm32cubemx\network_output\network_data_params.h   
C:\Users\jirap\.stm32cubemx\network_output\network_data_params.c   
C:\Users\jirap\.stm32cubemx\network_output\network_data.h          
C:\Users\jirap\.stm32cubemx\network_output\network_data.c          
C:\Users\jirap\.stm32cubemx\network_output\network_config.h        
C:\Users\jirap\.stm32cubemx\network_output\network.h               
C:\Users\jirap\.stm32cubemx\network_output\network.c               
